pytorch_cnn_coeff_32_32.pth (torch_old, 248882 bytes, 10 tensors)

conv1.weight f4 [6, 3, 5, 5]
00000000: db0d 873c cedc a3bd 0a96 a1bd 3db4 02bd
00000010: 9de5 e1bd dcc6 6d3d 70f0 633d b337 1cbd
00000020: c065 cfbd 9f79 85bd 9ede b83d 55b7 9a3d
00000030: fdf2 db3d ceed a53d 302f eabd 9fd4 3cbc
00000040: 7358 e5bd 5db8 c9bd 26fb 693c e92f 353d
00000050: b12e 07bd ed66 993d 3db2 c6bd 1e1d 7dbd
00000060: d375 8f3d 36e2 87bb ef7f 8bbc fe79 0a3d
00000070: ed5d d1bd a957 683c 111b 53bd 3e6a dcbd
00000080: a217 afbd fb5b c4bd 2706 833b 8c28 0cbd
00000090: a1e8 df3b 1fb3 cdbd b96c 913c f7d1 503c
000000a0: dec3 d7bc 4634 88bc e994 29bd e37d 7dbb
000000b0: 7ab0 edbc b2ff 99bd 31cf 1fbd 6812 c03d
000000c0: e5c4 ac3c f3e3 953d ddc3 203c 878e 43bd
000000d0: f4a3 af3d e06b a33d b9db 29bd 31f1 a7bd
000000e0: 581e 4abd c33f 95bd 18f7 743d 1ec7 17bc
000000f0: 6a57 d8bd 4115 783a fb3f 68bd 58a1 ad3d
00000100: b366 e73d 0726 893d 3bc9 37bd 14af c03d
00000110: 508b 8c3d d5dd 943d 0e19 ab38 2156 2a3d
00000120: 5452 82bc 505b f83b ec51 d7bd e147 883e
00000130: 4f59 7b3e 4cac 9b3e ad55 973e 6566 e73e
00000140: 7674 993d c4a4 583e 3bdd cf3d 515d 7a3e
00000150: da63 cb3e ed59 8c3d 0242 603c a28b 0c3e
00000160: 5d69 7c3e b81e 3f3e 1795 a7bc 0258 35bd
00000170: fc0f 943c c58d 303e b1e6 803e 3b9f 123d
00000180: 7daf 5dbc da49 e73d 70da 653e 6380 a73e
00000190: 0289 4f3c f619 78bd ea79 ad3d 22cd be3d
000001a0: 85e1 023e 7077 ebbc 9df2 16be 7da6 85bd
000001b0: 8768 19bd 1ebf 413d 7fcb 37be 7e4a 97be
000001c0: b0b4 63be 8975 84bd b0ff db3d aef7 68be
000001d0: ec93 abbe 2de0 87be 8988 16be 12c8 7e3d
000001e0: b421 29be 1c33 8abe bd06 64bd 7a31 2abe
000001f0: 8484 903d 7844 50be 02a1 2bbe 0340 cdbd
00000200: 8b1e 043e 9fb0 b73e fb2f a3be 8a63 eebe
00000210: 6199 87be 6212 2ebd afb3 323d f992 c6be
00000220: f546 0cbf 066f b0be e0fe a1be 98c5 e53b
00000230: fc7d 0fbf bca2 0cbf 7833 e6be e69a a8be
00000240: fb48 00be 64fd 03bf 432a b2be 6168 b9be
00000250: 5eb9 67be f817 11bd 3b35 bd3e 4d04 903e
00000260: d9d8 533e 3558 453e f654 be3e 26a6 3f3e
00000270: ab47 893e 2ce5 953e deea ae3e f16c a33e
00000280: d3a3 583e ba44 243e d40a 093e 60e2 883e
00000290: 50cf 683e 70c9 8e3e 9bf6 8c3e 6f54 523e
000002a0: 2e67 903e b3b2 613e b790 333e abf3 f63d
000002b0: 5aaf 893e 7260 603e b00e a63e fa78 bcbe
000002c0: 27ac 8dbe 44ac 64be b93a 51be 2342 90be
000002d0: 435d 9bbe 6fe1 babe fc4e a9be 0dc5 c8be
000002e0: 25ab 34be 5815 b5be 4796 c2be a067 8fbe
000002f0: 172a c0be 51e1 abbe 50ec a5be 17ec 83be
00000300: b0b7 85be 1e6e debe 4c70 42be f27d 59be
00000310: 6380 b1be 1a19 c5be 74f7 8bbe a474 a6be
00000320: 693d d3bc dbdb 63bd e60f 5dbd 702d b2bc
00000330: 228d 7bbd 5be6 13bd 3050 8cbd d85b d9bd
00000340: f771 27be 1194 0bbe df16 0fbd cfaf c4bd
00000350: 0ef1 27be bb36 95bd 7ba4 a0bc 0052 16be
00000360: 1858 5dbe 1981 00be 2902 16be 1768 03be
00000370: 81f0 32be b833 e1bd d5cb 17be b845 4bbe
00000380: 919b d4bd 35e3 86bd 6e8f bd3c 130f bfbd
00000390: 6eb1 e1bd 206d 493d c67f c63c 73cb e93c
000003a0: 937e dcbc 3d73 d93c dfa0 703c 9f83 783c
000003b0: b298 70bd 1f16 973d 722d e8bd 3e09 db3d
000003c0: 3417 5b3d ab68 e9bd 3568 a9bc a96b d7bd
000003d0: 50ba aa3c eb45 9cbd 7be1 c2bd ebe4 973d
000003e0: 8606 933d 4860 e3bd 7fd6 3cbd 0d6d e6bd
000003f0: fadc 9cbd f9d9 083d e01d 47bd 2780 6d3d
0.016486099 -0.080010995 -0.07889946 -0.03191017 -0.110301234 0.058050975 0.05564922 -0.038139056
-0.10126829 -0.06517338 0.09026836 0.07554499 0.10739706 0.08101998 -0.114347816 -0.011525302
-0.11198511 -0.09849618 0.01428107 0.044235144 -0.033003513 0.07490335 -0.09701965 -0.061795346
0.07004895 -0.0041468395 -0.017028777 0.033807747 -0.10222993 0.014181056 -0.051539484 -0.107624516
-0.085494295 -0.095878564 0.003998536 -0.034218356 0.0068331514 -0.1004393 0.017752038 0.012745372
-0.026338514 -0.016626488 -0.041401777 -0.003867977 -0.029014815 -0.07519473 -0.039015952 0.09378511
0.02108998 0.073188685 0.009812322 -0.047743347 0.085761935 0.0797956 -0.04146931 -0.082003005
-0.049345344 -0.07287552 0.05980596 -0.009263782 -0.10563548 0.00094636163 -0.05670164 0.084780395
0.11298885 0.06696706 -0.044869643 0.094083935 0.06862509 0.072688736 8.158582e-05 0.041586045
-0.015908398 0.0075792447 -0.10513672 0.2661734 0.24545787 0.3040489 0.29557553 0.45195308
0.07492916 0.21156603 0.10149618 0.2444966 0.39724618 0.068530895 0.0136876125 0.1372514
0.24649568 0.18664062 -0.020456834 -0.044273384 0.018074028 0.17241581 0.25176004 0.035796385
-0.013530609 0.11293383 0.22446609 0.3271514 0.012666943 -0.060571633 0.08470519 0.0931647
0.12781341 -0.028743476 -0.14740987 -0.06525896 -0.0374532 0.047301404 -0.17948721 -0.2954902
-0.22236896 -0.064677306 0.10742128 -0.22750732 -0.33511293 -0.2653822 -0.14700522 0.06220252
-0.16516763 -0.26992118 -0.05567049 -0.16620436 0.07056525 -0.20338619 -0.16760638 -0.10021975
0.12902276 0.3587694 -0.31872544 -0.46560317 -0.26484206 -0.042498 0.04362839 -0.38784006
-0.5479577 -0.34459704 -0.31639767 0.0070120804 -0.5605161 -0.5493581 -0.44961143 -0.32930678
-0.1252784 -0.5155852 -0.34797868 -0.36212447 -0.22629306 -0.03542325 0.36954674 0.2812828
0.2068819 0.1927193 0.37174195 0.18715724 0.2681249 0.29276407 0.34163564 0.31919053
0.21156244 0.16041842 0.13383037 0.2673521 0.22735333 0.2788806 0.27531895 0.20540021
0.2820372 0.22040825 0.17535673 0.12058195 0.26891595 0.21911791 0.3243308 -0.36811048
-0.27670404 -0.22331339 -0.20432557 -0.28175458 -0.3034459 -0.36500117 -0.33068073 -0.39212838
-0.17643411 -0.35367846 -0.38005278 -0.28008747 -0.37532112 -0.3357034 -0.32406855 -0.2576606
-0.26116705 -0.43443388 -0.1898815 -0.2123945 -0.34668264 -0.38495713 -0.2733723 -0.32510865
-0.025786119 -0.055629592 -0.05397024 -0.021750182 -0.06141389 -0.036108356 -0.06851232 -0.10613221
-0.16352068 -0.13630702 -0.03493392 -0.09603845 -0.16400549 -0.0728583 -0.01960968 -0.14679718
-0.21615636 -0.12549247 -0.14649262 -0.12832676 -0.17474557 -0.10996193 -0.1482385 -0.19850814
-0.103812344 -0.06586305 0.023139682 -0.09329047 -0.1102017 0.049176335 0.024230849 0.028539395
-0.026915824 0.026544208 0.014686792 0.0151681 -0.05873937 0.07377266 -0.11336793 0.10695122
0.053488925 -0.11396917 -0.020679573 -0.105185814 0.020840794 -0.07630523 -0.09515663 0.074167095
0.071789786 -0.111023486 -0.046102997 -0.112512685 -0.076593354 0.033411 -0.048612475 0.057983544

conv1.bias f4 [6]
00000000: b0e6 83bd ad24 683f 50e7 16ba 2063 2dbd
00000010: ed9e 2ebb 57e9 e03f
-0.064404845 0.9068096 -0.0005756514 -0.04233086 -0.002664502 1.757121

conv2.weight f4 [16, 6, 5, 5]
00000000: 95a0 8b3d c178 70bd beed 1fbd b916 003b
00000010: 9415 223d b80d 573d 55d3 873c 6c68 60bd
00000020: 4a63 59bd 1494 773d 0032 e039 e07f 893d
00000030: 1fbc 6fbd a074 babb d509 dbbb 2980 ce3b
00000040: 3284 40bd a321 bfbc d2e7 c33c 39b2 a1bd
00000050: 1c94 493d 65b9 a1bd b010 973c d37f 2b3d
00000060: db0c 97bc 2db7 5c3c d1f7 a9bd 9a14 febd
00000070: 44d4 053d 31ca 24bd 5659 c5bd c136 b1bd
00000080: 8200 7fbd db23 54bd 8ae8 67bd 28a0 413d
00000090: 6b25 3abd a033 95bd eb98 b4bc d7fc 223d
000000a0: 21f3 21bd 404b 3e3b 62aa 55bd a338 bbbd
000000b0: a28c 963c 632b 9abd 0316 be3b cd4e b33b
000000c0: 6249 a0bd feae 843d e524 80bd e820 56bc
000000d0: e285 003d 3cf7 86bd fdf4 183d 6b5b 3ebd
000000e0: 0e1d 9dbd 52b1 08bc 6571 1e3c 0c23 5d3d
000000f0: a51a 71bd 2327 3abd 6967 3cbd acd7 103d
00000100: 9b9f 0b3d 9a34 383d 9249 7dbd 5623 a7bc
00000110: d2f5 a73d 1b8a 87bb d83d 81bd d5d9 623c
00000120: e550 65bd 7a60 b9bb c324 c93c a0c3 813c
00000130: fccd 813d 1cdc 783d febf 60bd dd0d 4ebc
00000140: 5582 37bb f86e 3f3d 2879 73bd d4bf 823d
00000150: 1d15 253c 70f7 7a3d d0eb 8dbd 2c35 a43c
00000160: 7c4c 87bc 9824 71bd c666 53bd 582b 1fbc
00000170: 7421 15bd f6b4 2e3d be89 063d 55ee ba3b
00000180: c5fb 48bd 8bd1 99bd f8a4 61bc 0c23 8bbc
00000190: 637c 903d 89d8 a1bd 7faf 863d bada 463d
000001a0: c6f2 6e3d 711d c23c 8cfe febc 20af 4abd
000001b0: 2781 d5bc 53ad 94bc 6689 883d 564d a3bd
000001c0: 3d65 e7bc 30b4 69bd 48bc c53c 4874 523d
000001d0: 04e6 5b3d bfa1 81bc 9cb4 043d 0e60 d73c
000001e0: 843d e53c bbec f33c 1949 423d d083 4cbc
000001f0: 73e8 573d 7ccd 073b d4ce 1abe 2a39 993d
00000200: 99e4 173c fa53 d8bd b083 f63d faa2 75be
00000210: cba1 f13d a090 f23d 9e69 ffbd 593c fe3d
00000220: 1b52 2abe 873d 0f3e f904 113e 3b83 1dbe
00000230: e9dd 013d cf5a 353c 4826 693d afcc 79bd
00000240: b691 0abe 98b4 19bd aee0 b03d dc5f 403c
00000250: 89dd 7d3d 1781 c8bc fc0e 90bd 5bfe 903a
00000260: 697c 8fbd 34f6 123d 4304 a5bc 3c8c 6b3d
00000270: d002 af3c 8d85 823d a05b 93bb 38c0 6d3d
00000280: 1010 0f3c 84fe 533c 44c2 2a3d 600e a2bd
00000290: 6d46 91bd a475 cc3c 24f3 dbbc 0008 dcb9
000002a0: 635b 0bbc 4445 3d3d e039 ddbc 5543 9f3d
000002b0: 0a8e 28bd ac06 363d 5ea0 d0bc 255f 62bd
000002c0: 5828 d63d 9be6 003d 0c8b 7b3c 7b83 e83c
000002d0: 89dc 83bd 206c b9bc b238 173c af23 65bd
000002e0: 1e84 3fbd c3ca 92bd 8ecf 7abd eaa0 81bd
000002f0: a37d 9ebd 90a3 03bd 5fb2 bc3d 435a 49bd
00000300: 3b5e a3bd 331c bb3b 41ec 903d 7ab0 a03d
00000310: 3924 fe3c c681 d6bc e45d 2fbd 83d4 acbc
00000320: 1f15 a6bd fb87 7d3d 4201 b23d c9d4 c0bb
00000330: a26d afbc 27ee 773d 44e8 00bd 2111 b43d
00000340: 3b9a 84bc 8ccd 8abd 3a61 463c d51e 71bc
00000350: fc68 80bd 2246 353d b961 803c 4563 91bd
00000360: 1828 8a3d fd7a d3bc 2c7d 9a3d b83c 813c
00000370: 745c 0a3d b7b8 8c3d 09be 3d3d 47fe 413d
00000380: 5ca0 96bc 4f9f a13c 31c0 a93c 30a4 263c
00000390: c069 14bd 209d 4a3c 75d7 f93b ae00 7abd
000003a0: 1416 0abd 1a0a 103d c0d3 423b 1324 373d
000003b0: 7af5 5d3d 8501 923d 0044 feb9 0023 4c3b
000003c0: ce0c 3ebd eea2 14bd 6627 3f3d 1d85 32bd
000003d0: 885f 583d e1bf 3abd c41c 74bd e294 0a3d
000003e0: 26f0 73bd 986e 3cbc 9db2 0e3d 7697 f3bc
000003f0: 631d 14bd 74e6 ab3c 490f 00bc 9855 9fbc
0.06817738 -0.05870891 -0.039045088 0.0019544794 0.03957136 0.052503318 0.016580263 -0.054787084
-0.053073205 0.060443953 0.00042761862 0.06713843 -0.058529016 -0.0056901723 -0.0066845217 0.006301899
-0.04700107 -0.023331469 0.023914251 -0.078953214 0.049213514 -0.07896689 0.018440574 0.04186995
-0.018438747 0.013471407 -0.0829922 -0.12406273 0.032673135 -0.040231887 -0.0963618 -0.086530216
-0.062256344 -0.051792007 -0.05661825 0.047271878 -0.04544584 -0.07285237 -0.022045573 0.039791908
-0.039538506 0.0029036552 -0.052164443 -0.09141662 0.018377606 -0.075278066 0.005800964 0.0054720403
-0.07826497 0.064786896 -0.06257037 -0.013069369 0.03137768 -0.06590125 0.037343014 -0.0464739
-0.07671557 -0.008343058 0.00967059 0.0539885 -0.0588633 -0.04544748 -0.045997057 0.03536193
0.03408776 0.04497204 -0.06183774 -0.020402592 0.082011834 -0.0041363365 -0.06310624 0.0138458805
-0.05598535 -0.005657253 0.024553662 0.015840352 0.063381165 0.060756788 -0.054870598 -0.012576547
-0.0028001268 0.046736687 -0.059441715 0.063842446 0.010075835 0.06127113 -0.06929743 0.020044886
-0.016515963 -0.05887279 -0.051611684 -0.009714924 -0.036408857 0.042653047 0.032846205 0.005704681
-0.04906823 -0.0751067 -0.013772242 -0.016984485 0.07054975 -0.07902629 0.06576442 0.048548438
0.058336996 0.02369568 -0.031127237 -0.04948342 -0.026062561 -0.018149054 0.06666832 -0.07973735
-0.028246516 -0.057056606 0.024137631 0.051380426 0.053686157 -0.015824197 0.032398805 0.02629092
0.027983434 0.029775968 0.047432993 -0.012482598 0.052711915 0.0020721843 -0.15117961 0.07481606
0.0092708105 -0.10562892 0.12036836 -0.23987952 0.11798438 0.11843991 -0.12471317 0.12413854
-0.16632883 0.13988315 0.14162053 -0.15382092 0.03170577 0.011069014 0.056921273 -0.060986217
-0.13532147 -0.037525743 0.08636604 0.011741605 0.06197885 -0.024475617 -0.07034108 0.0011062132
-0.07006151 0.03587933 -0.020143634 0.057506785 0.021363646 0.06373129 -0.0044970065 0.058044642
0.008731857 0.012939099 0.041689172 -0.07912898 -0.07093511 0.02495844 -0.026849337 -0.0004196763
-0.008505675 0.046208635 -0.027005136 0.077765144 -0.041151084 0.044439957 -0.025467094 -0.05526652
0.10456914 0.031469923 0.015352976 0.028383007 -0.06438548 -0.022634566 0.009229826 -0.055942234
-0.046756856 -0.0716758 -0.061233096 -0.0632952 -0.07738807 -0.032138407 0.09213709 -0.049158346
-0.079769574 0.0057101487 0.07076312 0.0784616 0.031023132 -0.026184928 -0.04281415 -0.021097427
-0.08109497 0.06189726 0.08691646 -0.005884741 -0.021414582 0.060529854 -0.031471506 0.087923296
-0.016186824 -0.06777486 0.012108142 -0.014716824 -0.06270024 0.044256337 0.015671598 -0.07099012
0.067459285 -0.025815481 0.07543406 0.015776023 0.033779576 0.06871169 0.04632381 0.04736164
-0.018387012 0.019729285 0.020721527 0.010170981 -0.036233664 0.012366563 0.0076245614 -0.061035804
-0.03371246 0.035165884 0.0029728264 0.044712137 0.054189183 0.07129196 -0.0004849732 0.0031148791
-0.04639893 -0.036288194 0.046668433 -0.043583978 0.05282548 -0.045593146 -0.059597746 0.033833392
-0.059555195 -0.011500977 0.034838308 -0.029735308 -0.036160838 0.020983912 -0.007816144 -0.019449994

conv2.bias f4 [16]
00000000: 5941 ba3c d0c5 e6bc 3caf 6a3c 3d2c a7bc
00000010: 9d8f 17be 0c93 ac3a 7405 d03b 931d 81bb
00000020: 7e34 2fbd d238 0bbd a565 8abc 2696 a63e
00000030: c2b7 5a3e 8ad3 f9be 782d 7abd 87ac cdbb
0.022736238 -0.028170496 0.014324006 -0.020406837 -0.14800878 0.0013166382 0.0063483063 -0.003940293
-0.04277467 -0.033989735 -0.016894171 0.3253643 0.2135916 -0.48794204 -0.06107852 -0.0062766704

fc1.weight f4 [120, 400]
00000000: 3b97 c93c a2ee 6c3d 32af aabc cb1d acbc
00000010: eb4b 38bc 2b08 323d 23b2 f8bb 95d9 193c
00000020: 33d4 f2bc df6e 59bc 54ad 5dbc b76c b7bc
00000030: 171f 1f3d b61a 99bc a4d7 26bd 1fbe acbc
00000040: a5dd c5bc 2b34 f8bc 8c3f d33c 4eee 073a
00000050: 491c a73b 7e65 a1bb 1093 153d 9585 833c
00000060: 1ecd 70bb f368 c43c a7f1 1ebc dce0 233d
00000070: 0781 903c a9ec 8c3b 59d0 123c d7e8 1bbd
00000080: 2360 813b ab05 8a3c c7e1 0d3d 25cf 903c
00000090: c409 14bd 0b59 113c 7422 acbc aae7 1dbd
000000a0: 61a4 2cbc a26e 373d be94 013c ab44 163d
000000b0: 1ccf d3bc ae30 ec3c b74a 563d 2a19 29bd
000000c0: 08a7 0d3c d2ad a3bb e84c 21bd 1ebd ca3c
000000d0: 4a2e 1fbd b158 323d c1d2 583d 7195 573c
000000e0: 0a8f 4b3d 441a e6bc af74 81bc 72f1 623c
000000f0: afdb 783c c260 383d 587f 1f3b 47cf 14bd
00000100: d3d4 13bd 8cf7 f7bc a6db 903c 1ee9 04bd
00000110: cc43 3c3a 229c ef3b b625 e9bc 1478 ec3c
00000120: dafe 9f3c 31e7 0dbc 1e93 1cbd 83f0 483d
00000130: 83ba 253d f93d 613d 7210 fb3c 9cdf 0e3c
00000140: c075 3b3d 805b 98bb 93d0 033b 1b0f 8d3c
00000150: 9feb 10bd 866e 4dbd 1261 09bc 9e07 b4bc
00000160: 3b97 a5bc d804 8e3c e632 97bc 019c 043d
00000170: 9f9c c0bb 8b1f 23bc f5ec 733a ef66 253d
00000180: ac15 013d 2efe 54bd 35b4 cb3c f07d d83c
00000190: 80c1 4ebd 4922 0cbd cdeb 0abd 3173 be3c
000001a0: ead1 10bd 303d 4cbd 9165 063c 77dc 68bd
000001b0: a73b 163d 51c3 0abd d2d9 86bd ce98 fdbc
000001c0: cc5a f8bb 9b70 633d e8f1 15bd 0f04 c9bc
000001d0: 7e4d b5bb 1ea9 adbb f4d4 0e3d e443 9d3c
000001e0: bf02 fc3b ccf3 833c 24d9 88bd d820 323c
000001f0: b21c b33c b3d9 29bd 1faa 0bbd 9df2 69bb
00000200: e75e fcba ead8 033d e655 df3c bac7 463d
00000210: 5703 0d3c fa8e 923b bb89 e33b 787f 063d
00000220: 5446 22bd a4c1 443d b46f 61bc 54f1 41bd
00000230: 61eb 36ba 8d04 45bd 019f b9bc 9487 48bd
00000240: b741 a6bc 67cf c43c 01d8 4c3d a9e7 883c
00000250: ee87 dfbc c8f6 54bc 7b4e 23bc bd94 6cbd
00000260: 5079 ebbc 4048 39bd 9e69 17bd 8bed 1a3d
00000270: 788a 81bd 8ece 883d 29c2 b5bb b7a2 d4bb
00000280: 7c25 3639 2204 d73c 8679 e73c 2630 603d
00000290: 8982 7cbd 3cd4 683d 7307 1b3c 8bd9 81bc
000002a0: 8cad 253c 3d0c 8abc d3aa 9fbb 25c6 18bd
000002b0: 5b63 99bc 9428 97bd 3ec3 4ebd 31f6 56bc
000002c0: 9a17 3fbc 9d37 653c b81b 403c 56d0 1d3d
000002d0: db9f 2c3d 5227 f8bc cbdf 143c d09a 3c3d
000002e0: c5e3 20bd d8c0 c83b 72d5 ab3c ef67 c7bc
000002f0: 56a5 b73c 3e60 2cbc c20e 9fbc 2877 debb
00000300: 8001 44bd 8dfb 313d 86a1 00bd 7a97 343d
00000310: 37e5 13bd 8aa0 e9bc 6298 8f3b d22d ebbc
00000320: 635f 23bd 8343 513c 1b7d 2dbd b043 0cbd
00000330: f4ed eebc bb0f 54bd 985a 673c 0178 02bd
00000340: de1e 3b3d 8686 10bc 3e0d 72bb ffd0 503d
00000350: b6d9 473d 82b8 b93c 5869 c0bb 6bb5 babc
00000360: f232 033c 3766 52bd c508 b53c 4621 babc
00000370: 36e4 333d c18e 29bd 1213 d5bc e2bd ff3c
00000380: 306d a43c 8520 00bc 23d7 12bd f852 303d
00000390: a140 353d b3a7 80bc bc00 04bc 6889 df3b
000003a0: 58c7 443c 84fd 7d3c 1f21 013c abbe 61bc
000003b0: 8388 23bb 145f c0bc 2905 023d 464c 203d
000003c0: 16c3 2d3d 021a bd3c 3a93 473b cd6d 543a
000003d0: 0107 2ebc 830c bb3c 7a5a 36bd 915e 01bd
000003e0: 3094 433c 57d3 f7bb 1c78 36bc 5461 11bc
000003f0: 3657 9eba 037c ae3b 3af9 1bbd edf9 a3bc
0.024608245 0.057844765 -0.020835493 -0.0210103 -0.011248569 0.04346482 -0.007589595 0.0093902545
-0.0296422 -0.013271063 -0.013530094 -0.022390706 0.03884801 -0.018689495 -0.040732995 -0.02108675
-0.02415354 -0.030298313 0.025787137 0.00051853515 0.0050998074 -0.004925429 0.036517203 0.016054908
-0.0036743353 0.023975825 -0.009701169 0.040009364 0.01763965 0.004300673 0.008960807 -0.03806385
0.003948228 0.016848406 0.034639146 0.0176769 -0.036142126 0.008871327 -0.021012522 -0.03855101
-0.010537238 0.044783242 0.007908998 0.03668658 -0.025855593 0.028831806 0.052317347 -0.041283764
0.00864578 -0.004995086 -0.039379984 0.024748381 -0.038862504 0.043541614 0.052935366 0.013158188
0.04969696 -0.028088696 -0.01580271 0.01385151 0.015189095 0.04501415 0.0024337377 -0.036330488
-0.036091637 -0.030269407 0.017682862 -0.03244888 0.00071817334 0.0073123137 -0.028460365 0.028865851
0.019530702 -0.008661077 -0.03822624 0.049057495 0.040461075 0.054990742 0.03064749 0.008720305
0.045766592 -0.0046495795 0.0020113334 0.017219117 -0.035380956 -0.05015423 -0.00838496 -0.021976288
-0.020213714 0.017336294 -0.018456887 0.03237534 -0.0058780457 -0.009956251 0.00093050237 0.04038137
0.03151481 -0.052000217 0.024866203 0.02642724 -0.050477505 -0.034212384 -0.033916283 0.023248287
-0.03535644 -0.04986304 0.008202926 -0.056850877 0.036677983 -0.033877674 -0.06584515 -0.030956652
-0.007579183 0.05552731 -0.036607653 -0.024538068 -0.0055329194 -0.0052997014 0.034871057 0.019197412
0.007690757 0.016107462 -0.06682041 0.010872088 0.021864269 -0.04146738 -0.034097787 -0.0035697587
-0.0019254357 0.032189287 0.02726264 0.048530318 0.008606753 0.0044726105 0.006943909 0.032836407
-0.03961785 0.048036233 -0.013759542 -0.04734929 -0.0006977823 -0.048100043 -0.022658827 -0.048957422
-0.020295007 0.024024678 0.050010685 0.016712027 -0.027286496 -0.01299829 -0.009967442 -0.057759035
-0.02874437 -0.04523492 -0.03696596 0.037824195 -0.06325239 0.06680022 -0.0055468273 -0.0064891237
0.00017370837 0.026247088 0.02825619 0.054733418 -0.061647926 0.056843027 0.009462225 -0.015850803
0.010112178 -0.016851539 -0.0048726588 -0.03729834 -0.018724134 -0.073807865 -0.050479166 -0.01312022
-0.011663342 0.01399031 0.011725359 0.038528763 0.042144638 -0.030292187 0.0090865595 0.04604608
-0.039279718 0.0061265044 0.020975802 -0.024341552 0.022417706 -0.010520993 -0.019416217 -0.006789107
-0.047852993 0.04345279 -0.03140404 0.04408977 -0.03610727 -0.028518934 0.004382179 -0.028708372
-0.03988589 0.012772444 -0.042355638 -0.03424424 -0.0291662 -0.051772814 0.01412072 -0.031852726
0.045683734 -0.008821135 -0.0036934162 0.050980564 0.04879161 0.022670988 -0.005871933 -0.022791585
0.008007752 -0.05136701 0.022098908 -0.022720944 0.04391881 -0.041395906 -0.02601007 0.031218473
0.020071596 -0.007820253 -0.0358497 0.043047875 0.044251088 -0.015704965 -0.008056816 0.0068218
0.012010418 0.015502337 0.007881432 -0.013778369 -0.0024953193 -0.023482837 0.031743202 0.03913524
0.042422377 0.02308369 0.0030452744 0.000810352 -0.010621787 0.022833114 -0.04451988 -0.031584326
0.011937186 -0.0075630355 -0.011137035 -0.0088733025 -0.0012080434 0.005324842 -0.038079478 -0.020016635

fc1.bias f4 [120]
00000000: e991 3bbd fa09 4abd ab05 5f3e 53c8 3d3d
00000010: 42f1 8d3d 8887 3cbb 03d3 02bc 3056 36bd
00000020: 077d c1bd c636 6dbd 06a1 8f3d a01a 533d
00000030: 8229 d73c 4a10 7fbd 6304 57bd 2355 ea3d
00000040: bde7 0fbc 4c15 48bd 176f e2bc 6579 a03d
00000050: 4e7b ad3a ebf6 28bc 3474 5e3d f4d9 a1bd
00000060: 3d21 1cbd 96ce 31bd 618c 26bd 0e18 343e
00000070: 739a c23d a138 903c 5542 29bc de26 9b3d
00000080: 2950 14bc 75e0 913d cf01 fdbc 1840 6f3d
00000090: b076 79bc c927 4f3d 7ad5 393d 5264 16bd
000000a0: 956a 3ebc d221 44bd 5a91 3dbd d0f2 643c
000000b0: ab50 debc 6827 ea3c cce4 273c ad9e e13c
000000c0: ac90 cd3d 2b3c f73c 2786 2e3c a73b 083e
000000d0: 0922 e53d 30d5 e23d cf4c d83c 8519 373d
000000e0: 48ef ec3d f074 563d 0571 37bd 05ee 71bd
000000f0: 9595 abbc 6945 abbd dc52 acbb 3808 74bb
00000100: 61ed abbc afc3 93bd d283 993c 07e6 88bc
00000110: f587 863e a8b1 6b3c e5a0 ab3c 4e0e 11bd
00000120: 0c9f 29bd 912e 433d 87f0 b1bd 14f1 68bc
00000130: 72cc f23d 68ec 603d 69f8 90bc 1426 b5bd
00000140: 120e b03c 3108 ccbb 4f6f c53d f512 b7bc
00000150: 7de8 ca3b f29d 21bd 6961 86bc 4956 a93c
00000160: 0c21 a53c 286b 04bd 029b 203d d743 17bd
00000170: aa5b b43d 19c4 b13c 42b8 22bd 543b 8e3d
00000180: d522 dcbc 79ba 1b3e 4664 833d e941 843c
00000190: d43a c9bd 2e16 b33d 4db6 e1bb 7399 933d
000001a0: 71ff dd3d 0541 253d cb3a 85bc e803 9d3e
000001b0: db37 c4bc 6602 81bd a0d9 2abd 41b0 50bd
000001c0: 72ff 53bd ba27 30bd 7db1 e8bc fa32 47bd
000001d0: 37e1 ea3c 2288 263d 04b8 373d 7d0f 9e3c
-0.045793448 -0.04932592 0.21779506 0.046333622 0.06930782 -0.0028767306 -0.007984879 -0.04451579
-0.09447675 -0.057913564 0.07013135 0.051539063 0.02626491 -0.062271394 -0.052494418 0.1144202
-0.008783278 -0.048848435 -0.027640862 0.07835654 0.00132356 -0.010312776 0.05431004 -0.079028994
-0.038117636 -0.043409906 -0.04066122 0.17587301 0.09502115 0.017605128 -0.010330756 0.07575773
-0.009052315 0.0712289 -0.030884651 0.058410734 -0.015226051 0.05057505 0.045369603 -0.036716767
-0.011622091 -0.047883816 -0.046281196 0.013973907 -0.027138075 0.028583243 0.0102474205 0.027541483
0.100373596 0.030180058 0.010652102 0.13304006 0.11188132 0.110758185 0.026403813 0.04470207
0.11569077 0.052357614 -0.04478552 -0.059064884 -0.02094535 -0.08362848 -0.005258901 -0.0037236344
-0.020987215 -0.07215058 0.018739615 -0.016711248 0.26275602 0.014385618 0.020950744 -0.035414033
-0.041411445 0.04765183 -0.08688455 -0.014217634 0.11855401 0.054912955 -0.017696576 -0.088451535
0.021491084 -0.0062265624 0.09640371 -0.022347907 0.0061922655 -0.03945727 -0.01640387 0.020671027
0.02015736 -0.032328755 0.039210327 -0.03692993 0.08806546 0.021699952 -0.039726503 0.0694491
-0.026872078 0.15207852 0.0641561 0.01614471 -0.09825674 0.08744465 -0.006888187 0.072070025
0.10839737 0.04034521 -0.016263386 0.30667043 -0.023952415 -0.062992856 -0.04171145 -0.05094934
-0.051757284 -0.043006636 -0.028404946 -0.0486326 0.028671844 0.04065717 0.044853225 0.019294495

fc2.weight f4 [84, 120]
00000000: 984c 4bbc 1661 c1bb 7f1f 1cba 1b95 1bbb
00000010: 826c 6bbd b275 9f3c 11f6 8ebd 1859 9e3c
00000020: 1cde 8dbd f0be 67bd f854 ca3c c7c8 4fbc
00000030: 1da7 91bd 4701 a83d dfd8 af3d 3ef4 1c3c
00000040: ccb8 053d 43ea 8bbc 0a12 af3d 23c0 69bd
00000050: 9b2b 04bd 46b0 953d 42e5 b73d 4710 003c
00000060: 9e11 18bd 6db5 a23d 5361 0dbd 2928 39bd
00000070: 5824 aebd e263 323d 06c6 53bd f08f ac3d
00000080: 35d6 c43c 63a1 24bd ff96 813d 090a f83c
00000090: 5d54 c9bc 3fdc 143d 6431 9b3c 4c0a f13c
000000a0: 54d7 a1bd 3583 15bc 56b9 5dbd 581c 7cbd
000000b0: 6752 aabd fe93 96bd 60f6 80bd add8 623d
000000c0: 9ee9 88bb 6fd1 af3d 7cf6 2dbd 72bc a23d
000000d0: 7628 a4bd c96c bcbd 0b4f 9ebd 4dea 643d
000000e0: 9022 5dbd c906 6dbd fbe0 c03c 1d1a 043d
000000f0: acfc 9dbd 8e80 08bd ac52 a8bd babb a5bc
00000100: 72dc be3c 8d60 9b3d 3f0a 93bb 0e4a 3ebc
00000110: b7c7 913d 4ecf 63bc c578 0b3d cb1f a43d
00000120: 6487 80bd 12b5 b03d b9f0 a0bc b402 71bd
00000130: 0254 293d 8e98 2e3d 7449 8b3c 4e36 32bd
00000140: d62b ce3d dc24 0a3d d7d3 a33d 76fd 31bd
00000150: b484 283d 6dd8 bebd eb67 b1bc 08d7 34bb
00000160: 7a01 c63d 392d 5fbd 2062 a5bd 5f24 68bc
00000170: 2ec4 aabd 896d 58bd d51c 0bbd 33e7 b2bd
00000180: 00b9 8dbd b66c fb3b a3d7 6a3d 4126 59bd
00000190: f6e0 3cbd 1c79 bf3c 6dd8 2e3d c147 de3a
000001a0: 09af fc3a 35e9 a5bd 6230 d83c 3ab8 313d
000001b0: 474e a33d f2b9 0e3d f46c a7bc 0dbf 163d
000001c0: f607 333d 6c21 2bbd 87fe a93c 9c2a 993b
000001d0: 6d9f 813d e48d 8bbd 0bc7 923d 58c5 8abc
000001e0: a579 ec3c 9134 8ebb ae4e d63d 54b4 983d
000001f0: 069e 8cbc bf6e 693d f5db 003d 3a5a d13d
00000200: e5c7 bf3d 20b9 a43c d8b4 8bbd 4b36 1e3e
00000210: bf9b 793d 5524 303c 6891 0abc a109 db3d
00000220: ed09 f2bc 7a4e 85b9 69dc aebd 5a86 dc3d
00000230: ea81 263d 44c5 103d 9e53 9e3d 6bf2 9dbd
00000240: ab6d b53d 1478 f0bc 44c6 183c f4ed a2bc
00000250: 344a 95bd a8d3 253c a1ac 45bd 8407 1a3e
00000260: 22a8 f03d fbff 65bd ca8b 183d 3be3 8abc
00000270: 1dc3 9f3d 92f6 893d f6ea 2f3d ca6b d83d
00000280: dc13 21bc 4eba e4bc 2ddd 933a 0c42 43bc
00000290: e73e fe3d e158 d13d 1ef1 2b3d c9a7 09bc
000002a0: db2b 57bd 6701 5cbc 549b f83c 7ab1 a3bd
000002b0: 8516 2bbd 1d3f d2bb 4493 25bd 2936 b93d
000002c0: 5cf3 b1bd 83d2 dd3c b11b b6bd af5f a33d
000002d0: b31c cb3b cf66 1cbb d85b 8e3c 8e5c c9bc
000002e0: b150 8abd 5881 79bd 8290 13bd 2b4f c23d
000002f0: 7681 183d efde 433c 3e42 4bbd 6765 543d
00000300: 3140 3ebd 11c2 38bc e493 1b3d 3832 abbc
00000310: a46b 88bd bb6f cf3d 9c6b e23c 0f9e 4d3d
00000320: 0068 1b3c fc9c 3e3d d005 013d 3771 933d
00000330: 059e 7e3d 1de2 703d 1aea a83c 314d 0f3d
00000340: 3793 393c fd22 e63c 665a 8d3d 36ad 25bd
00000350: 04bd 4b3d 252a 8f3c 5dcb 1b3c 13c4 d23d
00000360: 3cf7 033d 2476 2bbd ae9f 8f3d 0b36 d33d
00000370: 536d 9a3d 2e03 a3bd 886c 563d 9363 90bd
00000380: 3577 1e3e 64c2 e33d 0e74 183d 653b 8fbd
00000390: 3c28 743d 1629 5e3d f1e4 edbc 321e 3d38
000003a0: bb4d b23d d24c ad3d 66b4 9bbd eb6a 993c
000003b0: 5432 083e 01ff e23d 1738 dd3d cf55 abbc
000003c0: a073 4abd 8aa4 6ebd 6a26 963d 0a0d f5bc
000003d0: d51d a7bd 0568 2d3d a172 143d df57 88bd
000003e0: eeb6 853c 5d85 24bc 5d83 11bd 96b9 b839
000003f0: 26a1 a0bc 9abd 243d 6ef9 423d a325 9d3a
-0.012408398 -0.005901466 -0.0005955621 -0.0023739997 -0.057476528 0.019465301 -0.06980527 0.019329593
-0.069271296 -0.056578577 0.02469872 -0.012682146 -0.071119525 0.08203369 0.08586287 0.009579716
0.03264694 -0.017079478 0.085483626 -0.057068 -0.032268148 0.07309012 0.08979274 0.007816381
-0.037126176 0.079447605 -0.034516644 -0.045204315 -0.08503026 0.043552287 -0.05170252 0.084258914
0.024027923 -0.040192973 0.06327628 0.030278223 -0.02457636 0.036342856 0.01894445 0.029423855
-0.07902399 -0.0091255205 -0.05413183 -0.06155047 -0.08316498 -0.07352446 -0.06296992 0.05538242
-0.00417824 0.08584868 -0.042471394 0.07946099 -0.0801553 -0.092004366 -0.0772992 0.05588751
-0.05398804 -0.0578678 0.023544779 0.032251466 -0.07714209 -0.033325724 -0.082188934 -0.020231117
0.023298476 0.07586775 -0.0044873054 -0.011614336 0.07118171 -0.013904406 0.03405072 0.080138765
-0.06275824 0.086282864 -0.019646036 -0.05884047 0.04133988 0.042625956 0.017002799 -0.04350882
0.10066955 0.033726558 0.079993896 -0.04345461 0.04114218 -0.09318624 -0.021655997 -0.002759399
0.096682504 -0.054486487 -0.080753565 -0.014168828 -0.083381996 -0.052838836 -0.033963043 -0.08735504
-0.069200516 0.0076728715 0.057334553 -0.053014997 -0.046112977 0.02337318 0.04268687 0.001695864
0.0019278239 -0.08101121 0.026390258 0.043388583 0.079739146 0.0348453 -0.020437695 0.036803294
0.043708764 -0.04177992 0.02075125 0.004674269 0.06329236 -0.06814173 0.07166871 -0.016939804
0.028866598 -0.0043397625 0.10464226 0.0745627 -0.017165195 0.05699038 0.031459767 0.102222875
0.09364299 0.020107806 -0.068216026 0.15450399 0.060939547 0.01075085 -0.008457519 0.10695196
-0.029545749 -0.00025426206 -0.08538134 0.10767813 0.04065124 0.035344377 0.077307925 -0.07712253
0.08858808 -0.029354133 0.009324614 -0.019888856 -0.07289544 0.010121264 -0.048260335 0.1504193
0.11750819 -0.056152325 0.03724269 -0.016954055 0.07800887 0.06736483 0.042948686 0.10567434
-0.009831395 -0.027920868 0.0011281125 -0.011917602 0.124143414 0.102220304 0.041977994 -0.0084018195
-0.05253206 -0.013428069 0.030347504 -0.07992835 -0.041769523 -0.006416215 -0.040423647 0.09043533
-0.08688995 0.027077919 -0.088920005 0.079772346 0.0061984896 -0.002386499 0.017377779 -0.024580266
-0.06753672 -0.060914367 -0.036026485 0.09487756 0.03723284 0.011955007 -0.04962372 0.051854517
-0.046447936 -0.011276738 0.037982836 -0.02089797 -0.06661156 0.10128733 0.027639203 0.050199565
0.009485245 0.04653643 0.031499684 0.071993284 0.062162418 0.05880939 0.02061944 0.034985725
0.011326603 0.028092856 0.06902008 -0.04044839 0.049740806 0.01747615 0.009508935 0.102913044
0.032218203 -0.041860715 0.07012878 0.10313042 0.07540383 -0.07959591 0.052349597 -0.07050242
0.15475161 0.111210614 0.037220053 -0.069937505 0.059608683 0.0542384 -0.029039832 4.5089233e-05
0.08706232 0.08461918 -0.07602768 0.01872774 0.13300449 0.110837944 0.10801714 -0.02091494
-0.049426675 -0.058262385 0.07331546 -0.029913444 -0.08159987 0.04233553 0.03624213 -0.06657385
0.01632258 -0.010041562 -0.03552567 0.00035233487 -0.019608092 0.04021988 0.047601156 0.0011989366

fc2.bias f4 [84]
00000000: 37e8 1cbc 3ca7 b93a 4eba 31bd a5fc 99bc
00000010: 492d 9dbd 68a1 8e3d af2c b6bd d19e fb3b
00000020: 4316 03bd af99 2b3e ed23 313d 10f5 023c
00000030: af41 2bbe 250a af3d 61d2 56bd 13fe 3bbd
00000040: ebb7 89bd 9c5e 30bd 06ab 443e 966b 013d
00000050: 751c 2f3e 8b06 13be 07e6 29be b252 60bd
00000060: 0f48 313e 7b38 81bd c130 c7bc 3555 7bbc
00000070: 5061 43bc 9a58 f53d 0955 8bbd 7152 b8bc
00000080: 7853 073e 28c9 8d3e e715 aabd b101 48bd
00000090: 41b5 d33d fe1c 5fbd f00e cc3d ca50 06be
000000a0: 48af 80bd 64ec 4a3e ffb1 693e 9d57 8e3d
000000b0: 8945 1a3e ff4e 02bd 02d6 87bd c5a7 1ebc
000000c0: 6caf bebd 51fc 96bd d52f 903d fcbb 8c3e
000000d0: f2fe e53b c031 edbc ab8d b03e b1a2 3a3d
000000e0: 2f51 293c bdae c33d 4cf9 573e f275 033f
000000f0: 87c6 dd3d 8d04 923e e6e0 64bd 8216 f53e
00000100: 924f 843b cc68 a8b9 aa99 90bc c404 01be
00000110: 5ac3 a73c bd04 0bbe 289e e9bd a2d3 ba3d
00000120: 093a 4e3b 33f2 833e 55d7 be3d e52e 9a3d
00000130: 7d04 483b 1dbc f53d d329 043c 0b3b 46bd
00000140: e55f 39bc 635e 64bd ee80 60bd 5331 df3c
-0.009576849 0.001416422 -0.043390565 -0.018797228 -0.07674653 0.069643795 -0.088952415 0.0076788445
-0.032003652 0.16757844 0.043247152 0.007992998 -0.16724275 0.08546857 -0.052446727 -0.0458966
-0.06724533 -0.043058977 0.19205865 0.031596743 0.17100699 -0.14357965 -0.16591655 -0.054766364
0.17312644 -0.06309601 -0.02431524 -0.015340139 -0.011925057 0.1197979 -0.068033285 -0.022500249
0.13215435 0.27692533 -0.08304959 -0.048829738 0.10337306 -0.05447101 0.099637866 -0.13116756
-0.06283432 0.19816738 0.22821806 0.06950305 0.15065588 -0.031813618 -0.066326156 -0.009683554
-0.09310803 -0.07372344 0.07040373 0.2748717 0.0070189172 -0.028954387 0.34483084 0.04556531
0.010334297 0.09554813 0.21091193 0.51351845 0.10828882 0.28519097 -0.055878542 0.47868735
0.004037806 -0.00032121537 -0.017651398 -0.12599474 0.020478893 -0.13576026 -0.11407119 0.09122397
0.0031467697 0.2577072 0.09318415 0.07528476 0.0030520253 0.119987704 0.008066612 -0.04839615
-0.011314367 -0.055754077 -0.054810457 0.0272452

fc3.weight f4 [8, 84]
00000000: 28b1 d23d b2b9 e1bd 0da3 2a3d babc 8cbd
00000010: 8f79 a8bd f695 3a3c 6a32 513d 119f 3b3d
00000020: c0a1 f13a d0d3 38bd 89cb 8e3d 6acf 8ebd
00000030: 2740 4abd 6c3e 84be 1bf6 de3c 5a3d 4cbb
00000040: 9e22 45bd 6b00 22bd 9f9f 243e 8cda e2bc
00000050: f9c3 f03d 4d93 58be b896 c8bc b089 3e3d
00000060: 6050 02be 0560 26be eaae febc 0d29 68be
00000070: 8c61 a7bd 3428 0fbe e1a7 55bc 2de3 c83d
00000080: 8c81 f23d 9811 b8bd c478 80bb b142 133d
00000090: d076 233e 84ec d1bd 5523 07be 927c eabc
000000a0: 61e6 9ebc 6276 e83d f63a c33d 60bf 3abd
000000b0: f077 5a3d 065c debd bc67 2dbd a3c2 98bd
000000c0: 2f8f ce3d 89ef 21bd 9db7 dd3d 3d30 8c3d
000000d0: 5f11 f8bd a020 333e 7ad6 83be 0088 803d
000000e0: ba75 723d e633 e9bd f020 0ebe 275a 5e3e
000000f0: e1a4 8dbc fca6 15bd be46 a03d 9bc0 a03d
00000100: 0355 b2ba d8e0 8ebd ab4d 893c 6fba 01bc
00000110: b6c3 d73d ae3e 7fbd 2068 ef3a dd55 383d
00000120: 89bf c9bd 5ac1 dfbc a6b9 283d 2d3c e2bb
00000130: 56e2 713d 9091 db3d 8ab7 66be fe4f 75be
00000140: a7cd c4bc 894e b7bd 2f35 81be 62c1 423c
00000150: 535d e5bd 7b90 d73d a073 0e3b 6077 9d3c
00000160: f120 583d 738b b93d 6309 4bbd eb7f 51bd
00000170: 88b0 ecbc 862c 403d d1dd bebd 27f5 1fbd
00000180: 6a33 0abe 815c 23be 7e94 04bd 7d68 24bd
00000190: 28d5 b63c d13e 283d d423 e13d 3e86 20bc
000001a0: ec23 193e d695 9e3b afcb a2bd 9358 e8bd
000001b0: 4b5c 6dbd 4d57 b7bd 1156 56bd 684e 62bd
000001c0: cb9d 6d3d ab95 303d af5c 0e3c 27ac 853d
000001d0: 97a2 073e a52e ae3d c6cd 9f3d 4b3f 2bbb
000001e0: f21d 04bd 7e24 a5bd 18c1 57be 97c8 60be
000001f0: 5b5d dfbc 4357 823c 1c14 33bc 1d79 0ebe
00000200: c77c 1a3e 5102 d73d bd1a 69bd 9b5a 853d
00000210: c76f 96bd 9cf2 96bd 2a4c 4ebd f235 913e
00000220: 8baf c93c 0110 a4bd 2749 723e 6dae ce3d
00000230: 5f1e 0e3d 2081 9a3d 4cdf e43d 9591 2b3e
00000240: f703 73be b52f 013e 7bf4 e6bc 1a4c c23e
00000250: 13c2 2e3c 1962 cdbd ae56 bfbd 3eb6 33bd
00000260: 1210 ca3d 9040 76be 941e f03c 9a69 593d
00000270: 15f6 56be 66f5 833e 2a22 043e a967 a63d
00000280: 54b0 a9bd 85bc 04bd 78a3 b93c 266a 91be
00000290: a408 763a e9fc 04bd f185 50be f5c4 893c
000002a0: f5ca b0bc a657 59be 54e8 153d 1831 c13d
000002b0: 2226 c23b e827 24bc 531a 62bc 04fc c53d
000002c0: 82fc 9ebd 996c 8f3a 8429 babd 7c9e 243c
000002d0: d7fa 40bc cd4e 84be a158 acbd 3cff fabd
000002e0: ad0c ebbc 3eb5 77bd 7011 f23c faf6 bcbd
000002f0: 34fd cdbc 3940 27be dfd1 c33a cc95 523c
00000300: c9ce 1bbe 704a 2dbe c009 d53d f7e0 38bd
00000310: e32b 193d 4c24 a83c 89b7 dc3d 4296 0b3d
00000320: 7479 763c 473c 06bd 9c1c abbd 25cd 0d3d
00000330: aa8e 603d 053c 77bc 28fc a5bd 7305 46bd
00000340: 0699 ac3c 79eb 0a3e 2398 acbc 95b1 fb3b
00000350: fc68 39bd 1812 05be 19fc 1bbd 4a02 553d
00000360: 7333 b83d 782a 74bd da5f 8ebd 3906 963d
00000370: 12b3 cdbd 4f87 993d 0007 17be 4627 72bd
00000380: 70a6 e13d 8698 a73d f89b 32be 1217 61bd
00000390: 8069 bd3d 35c6 803d 0bf1 483d a905 583d
000003a0: 1349 b93d d03b 90bd c69b 88bd f221 cc3d
000003b0: 9de9 40bd 6285 95bd daef 8e3d 40a1 673d
000003c0: 00d9 00be 37a7 ac3d e75c 7cbc 6f31 513d
000003d0: 9b88 9d3d 9b75 82bd 574f 64be 7d02 2dbe
000003e0: ece9 8cbd 827c 7dbd 68de 62be a904 d8bc
000003f0: 16fe e4bd bd4d 3c3e 10ec c8bd e71e a1bd
0.10287696 -0.11021747 0.041659404 -0.06871934 -0.082263105 0.011388293 0.05107347 0.045805994
0.0018435046 -0.045123875 0.06972415 -0.06973155 -0.049377587 -0.25828874 0.027216962 -0.0031164498
-0.048128717 -0.03955118 0.16076516 -0.027692102 0.11756129 -0.21149941 -0.02448593 0.046518028
-0.12725973 -0.16247566 -0.031089265 -0.2267191 -0.081729025 -0.1398018 -0.013040514 0.09808955
0.11841115 -0.08987731 -0.0039206464 0.035952274 0.15963292 -0.1025019 -0.13197072 -0.028623853
-0.019396963 0.11350705 0.0953273 -0.045592666 0.053337038 -0.10857396 -0.042335257 -0.07458999
0.10085904 -0.03953508 0.10826037 0.06845138 -0.12112688 0.17492914 -0.2574957 0.0627594
0.059194304 -0.11386852 -0.13879752 0.21714078 -0.017290534 -0.0365362 0.07825993 0.078492366
-0.0013605658 -0.06976479 0.016760668 -0.007917984 0.10535376 -0.062315635 0.0018265285 0.04500376
-0.098509856 -0.027313877 0.041192673 -0.006904146 0.05905374 0.10721123 -0.22530952 -0.23956296
-0.024023844 -0.08950526 -0.25235888 0.011886926 -0.11199441 0.10525604 0.0021736398 0.019221961
0.05276579 0.09059801 -0.0495695 -0.051147383 -0.02889277 0.04691746 -0.09319652 -0.039052155
-0.13496175 -0.15953256 -0.032368176 -0.04013871 0.022318438 0.04107553 0.10993162 -0.009797631
0.1495511 0.004839639 -0.07949006 -0.11345019 -0.057949346 -0.08952198 -0.052328173 -0.055250555
0.05801181 0.043111484 0.00868909 0.06526976 0.13245617 0.085049905 0.0780292 -0.0026130255
-0.03225512 -0.08063601 -0.21069753 -0.21951519 -0.027266195 0.01591075 -0.010930087 -0.13913389
0.15086661 0.10498489 -0.056910265 0.06511422 -0.073455386 -0.07370493 -0.050365604 0.2836147
0.024619838 -0.08010865 0.23660718 0.10091863 0.034696933 0.0754416 0.11175403 0.16754754
-0.23731981 0.12615855 -0.02819275 0.37948686 0.010666388 -0.10028476 -0.09342705 -0.04387497
0.098663464 -0.24048066 0.029311456 0.053079225 -0.2099231 0.25773162 0.12903658 0.0812524
-0.08285585 -0.03240635 0.022660956 -0.28401297 0.0009385443 -0.032467756 -0.20363595 0.01681755
-0.021581152 -0.21224841 0.03659852 0.09433192 0.005924956 -0.01001928 -0.0138002215 0.09667209
-0.07763006 0.0010942399 -0.0908995 0.010047551 -0.011778555 -0.2584137 -0.08415342 -0.12255713
-0.028692568 -0.06047558 0.02954933 -0.092267945 -0.02514515 -0.16333093 0.0014939866 0.012853097
-0.15215601 -0.16922927 0.1040225 -0.04513642 0.03739537 0.02052512 0.10777194 0.034078844
0.015043605 -0.03277233 -0.08355066 0.03461947 0.054823555 -0.015089993 -0.081047356 -0.04834504
0.021069061 0.13566388 -0.021068638 0.0076810815 -0.045266137 -0.12995183 -0.038082216 0.052004136
0.08994188 -0.059610814 -0.06951876 0.07325406 -0.100439206 0.07496511 -0.14748764 -0.059119485
0.110180736 0.081833884 -0.1744231 -0.054953642 0.09248638 0.06287805 0.049058 0.052739773
0.09047141 -0.07042658 -0.066703364 0.09967412 -0.04709779 -0.073008314 0.06979342 0.056550264
-0.12582779 0.08430331 -0.015403009 0.051072534 0.07692071 -0.06370088 -0.22295891 -0.1689548
-0.068805546 -0.061886318 -0.22155154 -0.02636941 -0.111812755 0.1838903 -0.0981065 -0.07867222

fc3.bias f4 [8]
00000000: d7c7 22be 1b35 273f 2050 42be 040d f8be
00000010: fe9e 213f e9f7 e83e 703d 03be 5cc5 4cbf
-0.15896545 0.6531541 -0.18975878 -0.4844743 0.6313323 0.4550164 -0.12816405 -0.79988647
