pytorch_cnn_coeff_32x32_115.pth (torch_old, 248882 bytes, 10 tensors)

conv1.weight f4 [6, 3, 5, 5]
000000 fe e6 93 3c 48 47 ac 3c cd 11 e1 bc 71 c6 be 3d
       0.018054482 0.021030083 -0.027474308 0.093151934
000010 0e 84 68 bd c2 3c c7 3c 67 26 30 bb c9 7f 43 3d
       -0.056766562 0.024320964 -0.0026878358 0.047729287
000020 c3 d5 a6 bd cd d5 b7 3d 54 a5 b2 bc 83 d2 1e bd
       -0.081462406 0.08976326 -0.02180735 -0.03877498
000030 c5 32 92 bd ee 84 3c bd b7 22 28 bd f1 e9 db 3d
       -0.0713859 -0.04602521 -0.04104873 0.1073798
000040 db 30 5b bd 4a 54 cf bd 89 c1 5b b9 a7 e8 e7 bd
       -0.05351339 -0.10123499 -0.00020957565 -0.11323672
000050 30 e9 97 bd 5b b0 e7 3d dc c0 b0 3d 18 6e cd 3d
       -0.07417524 0.11312934 0.08630535 0.10030764
000060 3b fd a9 3d 77 6a 25 bc 2c 77 dc 3d 94 75 38 bd
       0.08300253 -0.010096184 0.10764918 -0.045034006
000070 87 e6 8f bd 1d c4 9a 3d 0c b1 65 bd c4 1a 96 bc
       -0.070263915 0.07556937 -0.05607705 -0.01832331
000080 a0 3d 15 bd 27 13 13 bd 7a df bc 3c a0 9e bb bc
       -0.036435723 -0.035906937 0.02305578 -0.022902787
000090 32 9e a3 bd 98 53 1a 3d 09 2b 99 bd 82 e2 27 bd
       -0.07989158 0.037677377 -0.074789114 -0.0409875
0000a0 dd 2e 93 bd 6d e2 ad 3d ce 1c 54 3b 59 68 1a bc
       -0.07186673 0.08490453 0.0032365802 -0.0094242925
0000b0 f7 f9 9f 3c 61 4f 0f 3d 7f f2 ea bc 9e 00 ad bd
       0.019528372 0.03498781 -0.028680084 -0.08447383
0000c0 11 cb 81 3d f5 74 35 bc ca 35 b6 3b 03 4f 7e bc
       0.0633756 -0.011075248 0.0055606114 -0.015521768
0000d0 4e 19 ab bd cd 61 90 bd 63 47 fd bc 66 ff b7 3d
       -0.08354436 -0.07049904 -0.030917829 0.0898426
0000e0 e0 09 76 bc 32 24 bd 3d 59 f4 b2 3d d3 3b 4b bc
       -0.015017003 0.09235419 0.08738012 -0.0124044
0000f0 a1 e8 97 3c 88 0a 2a 3d 2d 46 3b 3d ec a7 62 bb
       0.018543543 0.04151395 0.04572122 -0.0034584953
000100 72 d2 a8 bd 8a c1 78 3d 57 7c c9 3d 8d 24 be 3d
       -0.08243264 0.06073145 0.09838169 0.09284315
000110 bc dc 07 3d f3 35 6c bd 98 f1 1b 3d 45 75 f6 bb
       0.033169493 -0.057668637 0.0380722 -0.007521304
000120 33 e5 ea 3d cc 61 b8 3d ac 04 4d bd 21 d0 63 3c
       0.114694975 0.09003028 -0.050053284 0.013904602
000130 55 55 c9 bc 46 25 78 3d e3 ba 3c bc 80 f9 8b bd
       -0.024576822 0.06058242 -0.011519167 -0.06834698
000140 3e 07 93 bd 68 ed 8a 3d 17 88 8b 3d 90 b4 4b 3a
       -0.07179116 0.06783563 0.068130665 0.00077707414
000150 16 90 5b 3d 61 e6 a2 3b 5c 00 95 bd 09 c8 9d bd
       0.053604208 0.004971311 -0.07275459 -0.07704169
000160 c7 1a d9 3d 87 c6 ad bd 96 ae 85 3d dd 1f 8a 3d
       0.106008105 -0.08485132 0.0652744 0.06744359
000170 1a da 7b 3c 4e 4e db bd 85 7d 4b 3d 25 17 34 bc
       0.015371824 -0.10708295 0.04968025 -0.010991846
000180 57 ec f1 bb cc e6 9e bd b4 06 52 3d da 9f 1b bd
       -0.0073829102 -0.07758865 0.051275924 -0.037994243
000190 e9 51 82 bd cc cb 93 3d 60 b5 61 bd ee 6d c9 bc
       -0.06363279 0.072166055 -0.055104613 -0.024588551
0001a0 b0 84 20 3c 38 0e 0a 3d 58 08 98 bc 56 7c d8 3d
       0.00979726 0.033704966 -0.018558666 0.1057059
0001b0 05 49 a1 bd d8 c2 b2 bd 11 21 b8 bd 3a 78 bc bd
       -0.078752555 -0.0872857 -0.08990682 -0.09202619
0001c0 f0 02 3b bd 00 cd f3 3a 11 76 18 3d 83 19 85 3d
       -0.0456571 0.0018600523 0.037221972 0.064990066
0001d0 12 53 88 bd 76 63 c5 3d 5c ea d6 bc d2 03 90 bd
       -0.066564694 0.09638111 -0.026234798 -0.07031979
0001e0 6a 23 85 bd b1 e3 d4 bd 37 68 12 bd 1c 1c a1 3c
       -0.06500895 -0.10394991 -0.03574392 0.019666724
0001f0 d9 4e 69 3d 23 c6 46 3b d6 f8 9f 3d 77 8d 61 bc
       0.05695996 0.00303305 0.078111336 -0.013766638
000200 c7 d5 27 bd 58 2f c9 bd ee b5 e2 bd 32 f4 19 bc
       -0.04097536 -0.09823483 -0.110698566 -0.0093966
000210 d2 c9 b3 3d bb 70 cd bd da a4 31 bd 9a d5 a2 3d
       0.087787285 -0.10031267 -0.043370105 0.079508975
000220 eb 64 bb 3c 08 80 e3 3d 2f b5 d3 bd a8 f8 6b 3c
       0.02287527 0.111084044 -0.103372924 0.014402546
000230 4d a9 2f bd c9 ee 8c bc ef 23 84 bc 8c ac bd bc
       -0.042886067 -0.017203705 -0.016130416 -0.023153566
000240 3d 5c b8 3d 5c ae cd 3d 82 a2 ac bd 4c 55 01 bd
       0.09001968 0.10043022 -0.084294334 -0.031575486
000250 40 f4 9c bc 82 b7 8e 3d c2 e5 b3 bd 90 35 ee 3d
       -0.019159436 0.06968595 -0.08784057 0.1163131
000260 e3 83 a7 3b dd 39 cc bd 5b 69 c9 3d 64 7f a7 bd
       0.0051121577 -0.09971974 0.09834548 -0.08178595
000270 7d c0 38 3a b4 30 93 bc 68 ab d3 bd 68 ad b6 3d
       0.0007047726 -0.01796756 -0.103354275 0.08919793
000280 9f d9 82 3c 46 8a 24 bd 19 8d 86 bc 92 07 94 3d
       0.01597291 -0.04017093 -0.016424702 0.072280064
000290 e9 5b 9a 3d ab e9 e0 3d 84 93 ab bd 68 68 da bc
       0.07537062 0.10982069 -0.08377746 -0.026661113
0002a0 18 be e9 3d 2f 16 60 3d 73 44 15 bd 0b fc df bd
       0.11413211 0.054708656 -0.03644223 -0.10936745
0002b0 5a d7 08 3c 8a d1 e4 3a fe ee 6a bd 50 ac 25 3d
       0.008352125 0.0017457467 -0.057356827 0.040447533
0002c0 84 9e 6d 3d 25 a1 d3 bd 18 a3 43 3d 84 f2 a4 bd
       0.0580125 -0.1033347 0.04776296 -0.08054069
0002d0 73 4f 01 3d d7 3a 60 3c b2 5e ce 3d e8 82 b6 3d
       0.03156991 0.0136859035 0.100766554 0.08911687
0002e0 21 5d ba 3d 4a 46 cd 3d 80 8b d9 3d da cc d7 bd
       0.09099794 0.10023172 0.10622311 -0.10537119
0002f0 b5 4f 16 3d 12 6e 7d bd 51 8a d2 3d 03 55 7c bb
       0.03669711 -0.06187255 0.10280288 -0.003850282
000300 ff e8 95 bd 8d 0a e4 bd 3e 9a 90 bc 13 53 1a bc
       -0.07319831 -0.11134825 -0.017651673 -0.0094192205
000310 56 5b 8f 39 0f 54 e1 bd 93 f9 e0 3c 23 de 6b 3d
       0.00027343136 -0.11002361 0.027462756 0.057584893
000320 cb 23 d7 3d 94 48 dd bc 5f eb 8d 3d 52 9b 29 bb
       0.10504874 -0.027012147 0.06929659 -0.0025879932
000330 70 e6 b3 bc 0f 00 26 bd 7d 6d ba bd a1 40 45 bc
       -0.021960467 -0.0405274 -0.091029145 -0.0120393345
000340 e7 f8 bb 3d f5 1d ba 3c bb f1 06 bd 5b d8 73 bc
       0.09178334 0.022719363 -0.032945376 -0.014883126
000350 69 96 87 3d 84 12 f2 bc e3 54 8f bd 50 cc f4 3c
       0.06620485 -0.029549845 -0.06998613 0.02988258
000360 01 48 3d 3d ac 98 80 3d f6 f4 e7 3d 32 99 cc bd
       0.046211246 0.0627912 0.113260195 -0.09990157
000370 51 67 93 bd 15 69 03 3b 8e 7b 83 3d 05 e9 da 3d
       -0.071974404 0.0020051647 0.064200506 0.10688976
000380 a6 90 b4 bc a9 e1 e4 3d c1 fd c8 3d 0c 5c e5 bd
       -0.02204163 0.11175854 0.09814025 -0.11199197
000390 98 8e b4 3d b2 ae 94 bd 31 00 a9 3d a3 90 cc 3d
       0.0881626 -0.07259883 0.0825199 0.09988525
0003a0 f6 92 ba 3b 00 36 91 3d dc e1 e9 3d f4 3e 97 3d
       0.0056937886 0.07090378 0.114200324 0.07385054
0003b0 1b 81 7d 3d 57 49 2e bc 30 99 4a 3d 02 d6 a4 bb
       0.061890703 -0.010637603 0.049462497 -0.0050303945
0003c0 57 f0 37 3d 84 8f 81 3d 58 70 3f bc 43 92 41 bd
       0.04490694 0.063262016 -0.0116845 -0.047258627
0003d0 55 75 b0 3d bb 4f c9 3d d1 2d fd bc 7e 47 c7 3c
       0.08616129 0.098296605 -0.030905636 0.024326082
0003e0 68 9e b7 3d 23 f2 25 3c 15 2c 71 3d ff bf da bd
       0.089657605 0.010128531 0.05887993 -0.106811516
0003f0 fb 70 cf 3d 28 a9 6b bd ee 8b a0 bd dc ea e2 bd
       0.10128971 -0.057534367 -0.078391895 -0.11079952

conv1.bias f4 [6]
000000 72 44 81 3d 8f 62 b8 bd e0 2b cd bd d4 12 9c bd
       0.06311883 -0.090031736 -0.10018134 -0.07620779
000010 b1 b5 d4 3d ef 21 19 bd
       0.103862174 -0.037385877

conv2.weight f4 [16, 6, 5, 5]
000000 8c c4 57 3d 45 38 8d 3c 48 b5 21 3d 0d 5d 9e b9
       0.052677676 0.017238745 0.039479524 -0.00030205437
000010 b5 69 2e bd ab 95 0a bd bb 76 88 3d d8 e4 23 bd
       -0.04258128 -0.03383414 0.06663271 -0.040013164
000020 9d 25 c0 3c eb 53 92 bd d3 07 23 3c 1e b9 2d 3d
       0.023455435 -0.07144912 0.009950596 0.04241287
000030 eb 8f 9b 3b b9 4d 5c 3d 4b 38 55 bd a3 f2 3c 3c
       0.004747381 0.05378506 -0.05205564 0.0115324585
000040 83 19 c9 bc 18 09 5c 3d 60 40 92 3d b7 fb f2 3c
       -0.024548298 0.05371961 0.07141185 0.029661043
000050 3e 0c 35 bd 56 8c 74 3c 7b 78 89 3d 11 e1 82 3c
       -0.04420113 0.014926037 0.06712433 0.01597646
000060 c5 c3 8f 3d 79 d6 3e bd d0 95 36 bc d4 4d de 3c
       0.07019762 -0.046591256 -0.0111441165 0.02713672
000070 e2 b0 77 bd a0 73 32 3d 60 12 5e 3b 60 f9 6d bd
       -0.060471423 0.0435673 0.0033885464 -0.05809915
000080 44 5b 90 bc 97 d6 89 bd b0 af b6 3b 4a 5a 89 3d
       -0.017621644 -0.06730383 0.005575143 0.067066744
000090 5e 64 88 3d 0e b7 1d bd 60 f3 27 bb 4a 40 8a 3d
       0.066597685 -0.038504653 -0.002562724 0.067505434
0000a0 c6 ad 86 bd f1 d1 9b bd 1a e5 a4 3d 18 ef 57 3c
       -0.065761134 -0.076084025 0.0805151 0.013179563
0000b0 6c b5 10 bd a4 5d 43 3d cd d5 00 bd aa 47 8b bd
       -0.035329267 0.047696725 -0.031453896 -0.06800778
0000c0 28 2c 74 bd 60 cd 5c bd e3 a0 17 3d 76 17 9a bc
       -0.059612423 -0.0539068 0.037018668 -0.018810015
0000d0 14 c5 64 3c a2 03 89 bd 89 f3 8a bd 4b 3e 61 bd
       0.013963003 -0.06690146 -0.06784732 -0.054991048
0000e0 5d 53 eb bc 03 2a f3 3c e6 b3 e1 bb 52 af 91 3c
       -0.028726274 0.029683119 -0.0068879006 0.017783795
0000f0 70 77 41 3c 20 ba a2 bc df e4 85 3d 65 60 78 3c
       0.011808261 -0.019864142 0.06537794 0.015159701
000100 d7 44 ac bc 98 77 84 bd b2 4a 8e 3d 0d 65 59 3d
       -0.02102892 -0.06468123 0.06947841 0.053074885
000110 8b b2 66 3d dc 60 9f bc 4c a7 06 3d 49 82 91 bd
       0.056322616 -0.019455366 0.03287439 -0.07104928
000120 18 18 d6 3c da eb a2 bd 0a b5 09 3d e6 50 f9 bc
       0.026134536 -0.07955141 0.033619918 -0.030434083
000130 a9 5c a5 bd f0 c8 8d 3c 8f 61 83 3d 0f 3a a8 bc
       -0.08074314 0.017307729 0.06415092 -0.020535497
000140 11 89 d4 bc 9f c8 08 3b fb 35 b1 3c 9e 0c 98 bb
       -0.025944265 0.0020871533 0.021632185 -0.004640176
000150 6d cd 57 bd c2 00 cc bc e4 1f 5f bd 0b b9 a6 bd
       -0.052686144 -0.024902705 -0.054473773 -0.08140763
000160 54 c2 39 3b 72 0b a6 bd 82 44 9e bc bd 38 8e bd
       0.0028344588 -0.08107652 -0.019319776 -0.06944416
000170 6e 1a b7 bc f4 3b 19 bd 44 58 8e 3d d5 92 11 bb
       -0.02235147 -0.03741069 0.06950429 -0.0022212763
000180 f3 77 3e bd 78 c8 56 bc 01 e2 86 bd 09 52 6e 3b
       -0.04650111 -0.013109319 -0.065860756 0.0036364815
000190 7f 74 94 bd 9c 48 d7 bc bf 91 97 3d 79 69 95 3d
       -0.07248782 -0.02627974 0.07400846 0.07295508
0001a0 2c 26 2e 3c 87 6d 33 3d ec 7f 12 3c 51 b7 62 bc
       0.010629218 0.043805625 0.008941632 -0.013837651
0001b0 b6 85 90 3c a4 8a 51 3d 99 e5 cf 3b c6 8a a6 bd
       0.017641883 0.05115761 0.006344509 -0.08131938
0001c0 e4 a0 45 3d 77 3e 64 bd 96 be 5c 3d 29 2b 95 3d
       0.04824914 -0.055723634 0.053892694 0.07283623
0001d0 43 9b b3 bc 42 f6 4a bc ad c3 2c b9 92 a4 0b 3d
       -0.02192462 -0.012387814 -0.00016476093 0.034092493
0001e0 6a 20 e7 3c 3c 5d 13 bd ca 22 a3 3d a9 3e 8e bc
       0.028213698 -0.035977587 0.0796562 -0.017363863
0001f0 e8 c2 82 3c 7c 5c 75 3d 04 d0 53 3d 7a 34 cf bc
       0.01596208 0.059902653 0.05171205 -0.025293577
000200 e6 d9 35 3c 14 de d3 3c 54 6a 65 bd b8 b7 8e 3c
       0.011099314 0.025862731 -0.056009606 0.017421588
000210 7a b5 9e bd 49 f7 60 bd 2c 70 3c bd 04 69 94 3c
       -0.07749458 -0.05492333 -0.046005413 0.018116482
000220 bf 44 4b bd 21 1f 8a 3d 48 dd 88 bd 85 cf 1a bd
       -0.04962611 0.067442186 -0.06682831 -0.037795562
000230 60 66 20 3c 98 b5 bc bc 20 4f 84 3d 94 6a 02 3c
       0.009790033 -0.02303581 0.064604044 0.0079599805
000240 51 92 09 bd 63 4d 9e 3d 33 71 88 bd 20 a5 89 bb
       -0.033586804 0.07729604 -0.06662216 -0.0042005926
000250 f8 a1 73 bd f4 f9 b2 bc cc a2 20 3d 0a 2f f7 bc
       -0.059480637 -0.021847703 0.039217755 -0.030173797
000260 60 d3 cc 3c af 83 94 bd 5c 0e 47 3d 59 44 03 bd
       0.025003135 -0.07251679 0.04859768 -0.032047603
000270 bc 03 3b 3d 00 2b 60 bc e8 ad 86 3d 70 0c 2c 3d
       0.04565786 -0.013682127 0.06576139 0.04200405
000280 98 71 2a 3c cf 3e 35 bd a0 c7 3a 3b 04 91 4b 3d
       0.010403059 -0.044249352 0.0028500333 0.049698845
000290 78 c6 79 3d 40 f1 de 3c 0c 34 5c bd f8 0c ea 3c
       0.06098029 0.027214646 -0.053760573 0.028570637
0002a0 cb b1 90 bd 76 cd a2 3d 36 7a 28 3d 10 2d d8 bb
       -0.07065161 0.07949345 0.041132174 -0.0065971687
0002b0 d0 4f 67 bd c9 d3 76 bd 70 62 21 bc a1 14 a1 bd
       -0.0564726 -0.060260568 -0.0098501295 -0.07865263
0002c0 80 b0 5c ba 30 84 a6 3c a0 c2 0b 3c 60 37 eb bb
       -0.00084186345 0.020326704 0.008530289 -0.007178232
0002d0 b6 29 23 bd b0 cd cd bb 38 a7 33 3d 00 d0 6f 3d
       -0.0398347 -0.0062806234 0.043860644 0.058547974
0002e0 38 5d 49 3d cf 6c 78 bd 10 16 86 bd 20 a2 71 3c
       0.049161166 -0.060650643 -0.06547177 0.014748126
0002f0 6d eb 66 bd 29 ba 30 bd c8 aa 44 3c 9a 4a 7b bd
       -0.056376863 -0.043146286 0.012003608 -0.061350442
000300 be aa 8e bd 86 76 29 3d 50 dc fa bb 30 c6 56 3d
       -0.0696616 0.0413728 -0.007655658 0.0524351
000310 92 bd 28 3d 08 eb 36 3c 50 0d 94 bd 40 3f 60 3c
       0.041196413 0.011164434 -0.07229102 0.013686955
000320 dd b9 77 bd c4 69 69 bd 9c e5 e5 bc cc d1 93 3d
       -0.060479987 -0.05698563 -0.028063588 0.0721775
000330 52 ab b2 bc 06 65 a2 3d 24 b4 a7 3c bc fa b4 bc
       -0.021810208 0.07929425 0.02047164 -0.022092216
000340 00 3d da 39 64 80 22 bd 46 d4 e5 bc a0 9b 2c 3d
       0.0004162565 -0.039673224 -0.028055321 0.042140603
000350 c7 da 8e bd f8 90 6d 3c 38 8f 55 3d 58 a4 eb bc
       -0.06975322 0.014499895 0.052138537 -0.028764889
000360 3c 32 9c bc 90 1c e8 3c 6d 45 88 bd 8f f3 86 bd
       -0.019066922 0.028333932 -0.06653867 -0.06589424
000370 e7 e8 4a bd 80 a1 0f 3c b8 a5 a9 bc f4 c2 99 3d
       -0.04953852 0.008766532 -0.020708904 0.075078875
000380 0a e1 a1 3d 9a 85 26 3d 9a c1 50 bd ab 1d 82 bd
       0.07904251 0.040654756 -0.050965883 -0.06353315
000390 94 d5 32 bd cd 01 07 bd bd 5c 90 bd 62 7a a6 3d
       -0.043660715 -0.0329607 -0.070489384 0.081288114
0003a0 92 a5 95 3d 98 db 8f 3c c0 a9 8b 3c 7c b4 94 3c
       0.07306971 0.017560765 0.017048717 0.018152468
0003b0 70 f5 11 bd 60 40 3e 3d 98 04 ff 3c 17 46 a1 bd
       -0.035634458 0.04644811 0.03113012 -0.07874697
0003c0 00 15 49 3a 0e 76 1f 3d a5 9c 9f bd cc 6e 35 3d
       0.0007670671 0.038930945 -0.077935494 0.044295117
0003d0 3a c0 56 bd 30 74 ab bb 98 d5 40 3d f4 61 02 bd
       -0.052429415 -0.0052323565 0.0470787 -0.031831697
0003e0 6c 0a fc bc 82 02 88 3d 90 cf 8d 3c 4c c7 d5 bc
       -0.030766688 0.06641103 0.017310888 -0.026096009
0003f0 ea 74 1c 3d 78 85 0e bd c0 11 53 3c 44 5e 18 3d
       0.038197435 -0.034795254 0.01288265 0.037199274

conv2.bias f4 [16]
000000 ef d3 82 3c 34 9e 8d bd 20 97 1f 3d 6f 45 96 bd
       0.015970198 -0.069149405 0.038962483 -0.07337462
000010 98 1a 4f bd 46 26 2d 3d 30 dd 85 3b dd d4 9b bd
       -0.05056247 0.04227283 0.0040852055 -0.0760896
000020 c6 b1 ec bc 48 2f 9a 3d de 1d 44 bd b3 fb 0d 3d
       -0.028893363 0.075285494 -0.047880046 0.034663867
000030 3a 58 5b bd 1d bd 44 bd 80 86 28 3b 3c bf 04 3d
       -0.053550936 -0.048031915 0.0025714934 0.032408938

fc1.weight f4 [120, 400]
000000 37 ac 4b bd 44 ee 67 3c 13 d1 45 3d c0 b1 b2 3a
       -0.049724784 0.014155928 0.04829509 0.0013633296
000010 3c b7 94 bc 7f 6c 13 3d 4f 17 21 bd 38 bd 1d 3d
       -0.01815378 0.03599214 -0.03932887 0.03851053
000020 65 9a 32 bd 26 76 19 bd 02 e4 c7 3c 96 b3 12 bc
       -0.043604273 -0.03746619 0.024400715 -0.008953949
000030 dd 6a 00 3d 0b 6b ac 3b 00 0d 35 3b 80 2b 1a bd
       0.031351913 0.005261784 0.0027626157 -0.03763914
000040 ba c9 c7 3c 44 84 bc 3c 33 e4 fd 3a 2c 60 36 3c
       0.024388183 0.023012288 0.0019370377 0.011131328
000050 47 4b 9b bc a3 b6 4a 3d cf a3 4b 3d 14 5c 76 bc
       -0.018956793 0.049490582 0.049716767 -0.015036602
000060 19 60 00 3d ee 7f 97 3c bb 5e 27 3d 7a 2d 00 bd
       0.031341646 0.018493619 0.040861826 -0.03129337
000070 af 26 2d 3d f9 29 3d 3d 4f 69 47 bd 3e 05 fc 3c
       0.04227322 0.046182606 -0.048684414 0.030764218
000080 07 7a 4c 3d fd 22 dd bc b6 5a 0b bd 40 59 3f ba
       0.04992106 -0.026994223 -0.034022056 -0.0007299371
000090 80 d1 12 bb 3b 9a 12 bd 88 76 0c bd 54 fb 63 3c
       -0.0022402704 -0.035791617 -0.034292728 0.013914902
0000a0 15 7c 4a 3d 82 95 11 bd e1 b0 06 3d 31 61 05 3d
       0.04943474 -0.035542972 0.03288353 0.032563392
0000b0 a6 a5 84 bc 1a 7d 12 bd ce 30 a0 3c c0 f4 c2 bc
       -0.016192269 -0.035763837 0.019554522 -0.023798347
0000c0 98 70 3d bc 3a 5b 2c bd c7 5b cb bc 9a b5 70 bc
       -0.011562489 -0.042079188 -0.024824036 -0.014691735
0000d0 d6 78 8b 3c 2d 37 34 bd 54 66 10 3c 5c 95 34 3c
       0.017025393 -0.043997932 0.008813459 0.011021938
0000e0 4d e5 35 3d 6b 2a 88 bc d9 57 e3 3c 91 1e 05 3d
       0.04440813 -0.016621789 0.02775185 0.032499854
0000f0 eb c7 14 3d a9 c8 df bb 8e ef 3a 3c 2d eb d9 bc
       0.03632347 -0.0068293405 0.011409653 -0.026601398
000100 f1 f6 6e bc dc b7 d0 bc e7 26 a2 bc b4 9b ff bc
       -0.014585243 -0.025478296 -0.01979394 -0.031202175
000110 34 97 b5 bc 01 c7 47 bc 00 3f 22 3d a0 8b 02 3d
       -0.022166826 -0.012193442 0.039610863 0.031871438
000120 3f 22 9f bb a4 8b 04 3d f5 6f c8 3c 21 0a db 3c
       -0.0048563774 0.032359734 0.024467448 0.026738228
000130 75 68 19 3d 2c a6 70 bc 09 a4 cd bc d1 9d c5 3a
       0.037453134 -0.014688056 -0.025102632 0.001507694
000140 e5 54 b1 3c 2e 21 84 bc 14 cc 85 3c 44 c4 9f 3c
       0.021646926 -0.016129103 0.016332664 0.019502766
000150 64 0a 1b 3b af c1 31 bd 18 28 16 bd a3 04 e6 3b
       0.0023657316 -0.0433976 -0.03665933 0.0070195957
000160 cc 1e 21 3d 10 5f 7a bc 42 5c 23 bd 05 f0 11 3c
       0.03933601 -0.015281454 -0.039882906 0.008907323
000170 af fd 38 3c cd 73 20 3b f9 41 11 3d ea aa a2 bb
       0.011290952 0.0024483085 0.035463307 -0.004964222
000180 cb 8c 26 bc 98 62 35 3d 9d a2 87 bc e9 79 12 3d
       -0.010165404 0.04428348 -0.016557032 0.035760794
000190 9d 23 da bc a5 d1 02 bd 06 c8 a1 3c e0 02 72 bc
       -0.02662831 -0.031938214 0.019748699 -0.014771193
0001a0 5a 42 df bc 83 ef 45 3d d8 bd b8 bb aa 96 85 bc
       -0.027253319 0.04832412 -0.0056378655 -0.016307194
0001b0 c0 0f 7e bc 77 31 30 3d 06 89 1c bd 00 df 8d b9
       -0.015506685 0.043015923 -0.038216613 -0.00027059764
0001c0 e6 c9 06 bd 92 da cb 3c 3d 65 3c 3d b6 a0 b4 3c
       -0.03290739 0.024884496 0.045994986 0.02204929
0001d0 38 b1 2d bd d8 90 07 3c f2 b4 d8 3c 0a 90 42 bd
       -0.042405337 0.00827428 0.026453469 -0.047500648
0001e0 28 c6 c9 bb db 6d 28 3d 7d 88 41 3d 8e 1b c7 3c
       -0.0061576553 0.04112039 0.047249306 0.024305131
0001f0 f1 c2 0a 3d 26 84 26 3d 0a 9f 04 bd 6e d5 4b 3d
       0.033877317 0.04065337 -0.032378234 0.04976409
000200 ce ed 4c bc 5b ea 37 3c 38 a8 4d 3c 9d e0 4e bc
       -0.012507869 0.011225308 0.0125523135 -0.012626794
000210 c9 cb 0e bd 13 ec 42 bd 0c e2 1a 3d bd 7c 3d bd
       -0.034862313 -0.04758842 0.03781323 -0.046261538
000220 2f 7f 39 bd ee d3 82 bc 96 48 10 bd 17 f8 20 3d
       -0.045287307 -0.015970197 -0.035225473 0.039299097
000230 00 7c 10 bc bf c0 fb 39 ee cb 05 3c 02 e7 9f 3c
       -0.008818626 0.00048018058 0.008166296 0.019519333
000240 64 74 a1 3c d9 11 20 bc 45 f0 c2 3c e7 c2 ca bc
       0.01970882 -0.00976988 0.02379621 -0.02475114
000250 64 dd ce 3c 61 e1 c0 3c 21 8f 04 3d ba 7e e9 bc
       0.025252052 0.023544969 0.03236306 -0.02850281
000260 60 b7 4e bb 40 f4 8b bc 90 d4 ab bc 90 c5 f5 3b
       -0.0031542405 -0.01708424 -0.020975381 0.007500358
000270 b3 0e c1 bc 00 fe a4 ba 60 6e 6f bc 88 5c 15 bd
       -0.02356658 -0.0012587905 -0.014613718 -0.036465198
000280 f0 4a 97 bb 9a 3d ed bc 51 20 0a 3d a3 2b 39 bd
       -0.0046170875 -0.028960038 0.033722226 -0.04520763
000290 a8 d2 3a bd 79 a2 3b 3d 3a d1 e3 bc 30 f9 84 bb
       -0.045611054 0.045809243 -0.027809728 -0.004058026
0002a0 23 07 f5 bc 45 20 45 bd 2d b1 0a 3d 20 52 38 bc
       -0.02991063 -0.048126478 0.033860374 -0.011250049
0002b0 5b c8 0f 3d 4a b5 a6 3c bf 1d 3b 3d 63 21 e8 3c
       0.035103183 0.020350117 0.045682665 0.028336233
0002c0 53 84 48 3d 44 a0 89 3c 72 be 20 bc 62 37 2d ba
       0.04895432 0.016800053 -0.009811031 -0.0006607679
0002d0 4f de d5 bc 63 d1 ac 3c 19 26 27 bd 57 49 c2 3b
       -0.026106982 0.021095937 -0.040807817 0.005929153
0002e0 81 bb 12 3d 33 db f8 3c 2d 57 43 bd 9e 17 0a bd
       0.03582335 0.03037796 -0.04769056 -0.03371393
0002f0 cb f0 1c bd ff c8 4f bc a4 d9 41 bd 95 36 92 bc
       -0.038315576 -0.012682199 -0.0473267 -0.017848292
000300 1d d9 47 bd 6e 7c af bb 3c 44 e8 bc 1d ef 31 3d
       -0.04879104 -0.0053554093 -0.02835285 0.043440927
000310 22 f7 43 3d e5 b3 f1 bc e5 3d 4f bd a3 4c 3b bd
       0.047843106 -0.029504726 -0.050596137 -0.045727383
000320 e8 3c 20 bd 18 79 3b bc 18 62 3b bc 82 8c 1c 3d
       -0.039120585 -0.011442445 -0.011436962 0.038219936
000330 4c 56 53 3c a2 c2 aa 3c f5 07 2f bd 29 69 24 3d
       0.012898993 0.020844761 -0.042732198 0.04013935
000340 f2 65 14 bd 56 8c 44 bd 58 d3 f6 bb 7d 4c d4 bc
       -0.036230035 -0.047985397 -0.0075325184 -0.025915379
000350 3b 8e 2a bd 50 65 0f 3d be 70 1d bc 00 59 3d bd
       -0.041639548 0.03500873 -0.009609399 -0.046227455
000360 02 f0 33 bd 2d 91 42 3d de 3b 1f bd de cd 24 bd
       -0.04393006 0.04750173 -0.038875453 -0.040235393
000370 40 3a 13 3c 20 77 39 bb 2c 9a 01 bc ce 90 85 3c
       0.008986056 -0.0028299764 -0.007910293 0.0163044
000380 27 f1 f5 bc 41 48 22 3d 51 60 27 bd f5 34 f8 3c
       -0.030022217 0.039619688 -0.04086334 0.03029869
000390 81 67 d5 3c 9a b4 14 bd 2a d1 bd bb 95 6a 23 bd
       0.026050331 -0.036305048 -0.0057927566 -0.039896566
0003a0 e0 d0 32 bb a5 7d be bc ae 19 5e 3b dd b1 24 bb
       -0.0027285144 -0.023253271 0.0033889818 -0.002513043
0003b0 fb 8d f4 bc 3f 57 07 bd 67 55 1e bd 33 97 41 bc
       -0.029852858 -0.03304219 -0.038655665 -0.011815834
0003c0 61 e8 bd 3c f3 17 16 bd d7 6a 2a 3d e9 91 98 bc
       0.023182096 -0.036643934 0.041605797 -0.018624263
0003d0 b6 20 ec bc 5a bc b9 3b 9a 02 0d bd 33 91 0a 3d
       -0.028824192 0.005668205 -0.03442631 0.03382988
0003e0 22 e2 eb bc e7 42 b9 3c ac e1 c8 bc 37 3c a6 bc
       -0.028794352 0.02261491 -0.024521671 -0.020292385
0003f0 95 6f 32 3d 59 fc 89 bc ce 19 33 3c 4e ce 3d 3d
       0.043563444 -0.016843962 0.010931445 0.046339326

fc1.bias f4 [120]
000000 c5 71 81 bb 90 9f 19 bd 56 63 3f 3d 6d 45 a7 bc
       -0.00395033 -0.037505686 0.046725594 -0.020418847
000010 b3 24 8f 3c 9c f8 88 3b ad 9f 2b 3d 8c bc f1 3c
       0.017473554 0.004180027 0.041900326 0.029508851
000020 81 10 a3 3c 95 be 16 bd 99 81 72 3a 2c 52 18 3c
       0.01990533 -0.036802847 0.0009250879 0.009296935
000030 95 c9 2b 3c 46 38 15 bd eb 3f 2f bd 0f 87 41 bd
       0.010485073 -0.03643062 -0.042785566 -0.047247943
000040 53 c2 3f 3d b4 fb 01 bc b0 82 d4 bb b9 50 38 3d
       0.04681618 -0.007933546 -0.0064853057 0.044998858
000050 2d 36 d3 bc fa f3 12 3d 46 e9 c0 3c be 02 39 3d
       -0.025782669 0.035877205 0.023548733 0.04516863
000060 87 3a 87 3c 8c f1 1c 3d 60 08 2c 3c 05 c9 c2 bc
       0.0165074 0.038316295 0.010500044 -0.023777494
000070 61 e5 a4 bc b1 09 10 3d 6a 9a 8c bc 4c 0a 67 bc
       -0.020128908 0.035165492 -0.017163474 -0.014101576
000080 6b 15 a8 3c c7 4c d9 bb 6b b0 9b 3c 82 ce 58 bc
       0.020518025 -0.006631467 0.019005021 -0.013232829
000090 6e 9e 39 bc 50 5e 19 bb e6 97 19 bc 8a 8b cb bc
       -0.0113292765 -0.0023402162 -0.009374594 -0.02484681
0000a0 b8 c9 20 bc 8d 45 52 bc a3 72 f7 bc 17 31 d9 bc
       -0.0098137185 -0.012833965 -0.03020603 -0.026512666
0000b0 68 24 e8 bb 90 a7 3a bd dd 3a 2d 3d 7e fe f4 3a
       -0.007084418 -0.045569956 0.042292465 0.0018691567
0000c0 13 0f 38 bd 8b 7e a9 3c dc a5 41 3c 32 1e 37 3d
       -0.04493625 0.020690223 0.011819329 0.04470653
0000d0 15 d2 4b 3c 9e 03 41 bb db 63 2f 3c d0 5f ef bc
       0.012440224 -0.002945162 0.01070496 -0.029220492
0000e0 e2 28 33 3d 32 d6 d9 3c 12 a8 f5 3c 83 4c 4b 3d
       0.04374016 0.026591394 0.029987369 0.049633514
0000f0 d5 f5 7d 3c 88 21 92 3c b1 31 03 3d 4c ef f1 bc
       0.015500505 0.017838255 0.03202981 -0.029533051
000100 7c bd 35 3d 34 f8 50 bc d4 4d 87 bc ce 3f e6 3c
       0.04437016 -0.012754489 -0.016516604 0.028106596
000110 cd a5 5b bc b3 c0 20 bd e3 3f c6 bc 6c 3e 55 3c
       -0.013406229 -0.039246272 -0.024200385 0.013015371
000120 fa 9e f2 bc e4 9a 2b 3d 55 b2 8c 3c 78 09 df 3b
       -0.029616822 0.041895762 0.01717488 0.0068065487
000130 74 f8 2f 3d 17 71 bb bc 62 87 ae 3c 5a c5 b2 3a
       0.042961553 -0.022881074 0.02130479 0.0013639138
000140 b9 38 9e 3c a5 1e 48 3d dd 84 43 bd 84 f4 34 3c
       0.019314157 0.04885735 -0.04773413 0.011044625
000150 6a 6c a5 bc 23 9f eb bc 08 a3 f0 3c 25 3c b1 3b
       -0.020193297 -0.028762406 0.029374614 0.005408781
000160 44 79 49 bc b5 06 26 bd 45 fd 1e bc bf af 38 3c
       -0.012296978 -0.04053374 -0.009703939 0.01127237
000170 58 f1 39 bd 14 07 60 3c be c3 25 bd 5b 47 c8 3c
       -0.04539618 0.013673563 -0.040469877 0.024448087
000180 a0 1b 83 bc fb 1e 90 bb 5b 58 6b bc fe ba f4 3c
       -0.016004384 -0.0043982244 -0.014364327 0.029874321
000190 70 0f 2b bd da 5a d4 bc fb 2e 66 3b 50 c7 a7 bb
       -0.04176277 -0.025922228 0.0035123217 -0.0051201954
0001a0 dc f5 26 bc e3 d7 37 bc 1a 9d bf bc c3 47 93 bc
       -0.010190453 -0.011220905 -0.023390342 -0.017978555
0001b0 07 ae 25 3d d0 19 c3 bc 64 5a 92 bc c6 82 3d 3d
       0.04044917 -0.02381602 -0.017865367 0.046267293
0001c0 51 ed 6d 3c 9d 98 f9 bc 00 cd a9 3c 88 a1 01 3d
       0.014521913 -0.03046828 0.020727634 0.03164819
0001d0 b7 4c dc bc 63 6c 2d bd 42 6f d7 3c 0e 2f 74 3b
       -0.02689205 -0.042339694 0.026298169 0.0037259492

fc2.weight f4 [84, 120]
000000 eb 0c 90 bd ee 1a 34 bd 32 0c 46 bc 4a 67 b9 3d
       -0.07033714 -0.043970995 -0.0120878685 0.09052904
000010 9d 30 16 3d ec 68 b0 3c 96 f1 63 3d 9f 86 f5 3c
       0.036667455 0.021534406 0.055650316 0.029971419
000020 cc a7 04 3c 06 53 a2 bd 8c f1 fe 3b 9e 4b 84 bd
       0.0080966465 -0.07925992 0.0077802595 -0.06459735
000030 c3 86 9f bd 55 80 7c bd 3a 7b 79 3d 17 3d 91 bd
       -0.07789376 -0.061645824 0.060908534 -0.0709173
000040 8c d6 86 3d 30 18 64 3d 95 73 1f bd 3b 5e 47 3c
       0.0658389 0.05568713 -0.038928587 0.012168462
000050 b0 1a 29 bd 2c 44 7a bc c3 d7 20 bd c4 69 44 bd
       -0.041285217 -0.0152750425 -0.039268266 -0.04795243
000060 d8 c8 70 bd b6 76 39 bd be 80 b6 3d 78 95 8c 3c
       -0.05878529 -0.045279227 0.089112744 0.017161116
000070 56 e7 7c bd 80 8a 03 3a e4 6d c5 bc 57 14 64 3d
       -0.061744057 0.00050178915 -0.024100251 0.05568346
000080 27 cc c1 3b cf 3c 98 bd 19 e5 b2 bd 26 60 b9 3d
       0.0059142294 -0.07433473 -0.08735103 0.09051542
000090 fa 95 87 3d 04 43 db 3c 33 d6 77 bc 59 db 16 bd
       0.06620403 0.026765354 -0.015126753 -0.03683028
0000a0 90 76 47 3c 8c 31 5f 3d 30 25 8c bb 28 33 86 3d
       0.012174264 0.05449061 -0.004276894 0.06552726
0000b0 ee d3 b0 3d 33 71 99 bd 8d d5 95 3d e5 c3 b2 3d
       0.086341724 -0.07492294 0.07316122 0.0872877
0000c0 8c 2f 4d 3d 82 6b 68 bd 93 dc a4 3d b6 97 6c bd
       0.050094172 -0.056743152 0.08049884 -0.05776187
0000d0 ec 9c 6c bd bc e4 f6 3c 39 9c 29 bd f8 6e a0 bd
       -0.05776684 0.030138366 -0.04140875 -0.078336656
0000e0 c5 4b 8f bc 40 ab e6 3c 91 59 b7 3a 86 28 46 3d
       -0.017492184 0.02815783 0.0013988485 0.04837849
0000f0 d5 0b fc 3c 2e 8e 80 bd e0 5e b7 bc 1c fe a1 38
       0.03076736 -0.062771186 -0.022384107 7.72441e-05
000100 c3 71 86 bd d0 8e 19 3d 4e 35 a9 3d 3c 02 29 3d
       -0.06564667 0.037489712 0.0826212 0.041261896
000110 92 79 fb 3b 40 67 fb bc f0 24 cf 3c 88 86 67 3d
       0.0076744044 -0.030688882 0.025286168 0.056524783
000120 00 78 f9 3b 04 1f d6 bc 8f 23 02 3d 46 bd ac 3b
       0.007613182 -0.026137836 0.031772193 0.0052715866
000130 74 c2 5e 3d 3c d7 49 3c 5d bf 31 bd 74 63 9e bd
       0.054384664 0.012319382 -0.04339539 -0.07733813
000140 3e 02 02 bd 18 1c cd 3c 89 05 49 bd 88 21 9b bb
       -0.03174042 0.02503781 -0.049077544 -0.004734222
000150 78 65 ad 3d 38 5a a8 3d b7 66 9f bc b8 4d 87 3d
       0.08466619 0.08220333 -0.019458158 0.066066206
000160 5a 0e 1d 3d bc dd 7b 3d 12 e7 81 3d 95 83 ba 3d
       0.038343765 0.06149076 0.06342901 0.091071285
000170 68 1b 5f 3d ec 7b 37 bc 92 a5 64 bd a7 c0 01 3d
       0.054469496 -0.011198979 -0.055821963 0.03167787
000180 b1 3c ca 3c e7 8b 86 3d bb 72 45 bb 60 9b 9f 3d
       0.024687143 0.06569653 -0.00301282 0.07793307
000190 3d d9 37 bd cc 7e ed 3c a4 d5 65 bb a8 61 24 3d
       -0.04488491 0.028991126 -0.0035069967 0.040132195
0001a0 56 54 ce bc 2d 54 2a bd a1 8b 7d bd cc fe a6 3d
       -0.025186699 -0.041584183 -0.06190074 0.081540674
0001b0 69 bb a3 3d 34 af 92 3d d5 df ba bd 5d 7e 1f bd
       0.0799473 0.071623236 -0.09124724 -0.03893887
0001c0 50 bc 8f 3d 00 fa 5f 3b f0 ee 1c 3d e2 93 ab 3c
       0.0701834 0.0034176111 0.038313806 0.02094454
0001d0 9c 4d ec 3c 5e f7 9d 3d 80 05 8e ba 3c c8 03 bc
       0.0288456 0.07713197 -0.0010835379 -0.008043345
0001e0 06 24 b3 bc bc 5a de 3c 2a 9d b7 bd 70 3c ac bc
       -0.021867763 0.027142875 -0.089655235 -0.021024913
0001f0 a6 e3 d7 3c 6e 10 d8 3c 52 6a 8c 3d f9 5c 1c bd
       0.026353668 0.026375022 0.068562165 -0.038174603
000200 e4 07 fd bc ce 53 f4 bc 99 43 06 bd 2e 18 9a 3d
       -0.030887552 -0.029825117 -0.03277931 0.07524143
000210 84 37 ab 3d f7 d0 7d bd f5 b2 98 3b 5e 17 02 bd
       0.08360198 -0.061966863 0.004660005 -0.031760566
000220 a9 a1 a2 bc b9 6d 1a bd ae 7d a6 3d d0 8d 51 3b
       -0.019852476 -0.037702296 0.0812944 0.0031975396
000230 0c 9e f5 bc a8 98 ba bd 2c ec c0 bc ac e5 a9 3d
       -0.02998259 -0.09111148 -0.023550116 0.082957596
000240 62 66 fa 3c bb 6a 96 bd 21 45 23 bd 31 ea f7 bc
       0.030566398 -0.07344576 -0.03986085 -0.030263038
000250 c6 e7 76 bd 60 af a9 bc f8 f9 da bc eb 04 70 3d
       -0.06027963 -0.020713508 -0.026730523 0.05859844
000260 01 c1 b2 3d 8e 37 b7 3d 16 e3 9c bd f4 0f 5a bc
       0.08728219 0.08946143 -0.07660501 -0.013309468
000270 6d d9 c5 3b da 29 85 3d 4f 9c 3f 3d 7c db 0f 3d
       0.006037882 0.06502123 0.046779927 0.035121426
000280 bd 95 2b bd 20 e0 56 bd 52 94 f3 bc c0 1e 0a 3d
       -0.04189085 -0.052459836 -0.02973381 0.03372073
000290 b6 9d 4d bd f1 49 ab bd 21 e5 4c bd f0 c4 6c bb
       -0.050199233 -0.083637126 -0.0500232 -0.0036128126
0002a0 d0 ed 91 bb 60 af a1 bc 7c 94 91 3d 85 15 0b bc
       -0.0044533983 -0.019736946 0.07108399 -0.008489017
0002b0 7a 7f 79 3d ec 52 7c bd 86 0f c2 3c b8 59 9c bc
       0.060912587 -0.061602518 0.023689043 -0.01908575
0002c0 f2 aa a0 bd 80 63 66 3d d9 b4 b1 3c a1 1b 8f bc
       -0.07845105 0.056247234 0.02169268 -0.01746923
0002d0 3e c3 8e 3d 44 4a a5 3d 08 17 90 bd 4e d5 2e bb
       0.06970833 0.08070806 -0.07035643 -0.0026677432
0002e0 32 7a 15 3d 94 c8 43 3d 40 23 74 bd 74 49 52 3d
       0.036493488 0.047798708 -0.05960393 0.05133958
0002f0 bf 4a 99 3d 8e ab 08 3d ee cc 06 3d ed 0d 89 bd
       0.0748496 0.033366732 0.03291028 -0.06692109
000300 f0 8d de bb 91 c2 88 3d dd 23 75 bd b1 fb 58 bd
       -0.0067918226 0.066777356 -0.059848655 -0.052974407
000310 26 81 83 3c 88 c4 83 bd dc 0d 78 bd c8 f5 93 bd
       0.016052794 -0.0643397 -0.060560092 -0.072246134
000320 5c 39 90 bc 7c 5c 35 bd 29 f3 9d bd e4 00 77 3c
       -0.017605476 -0.044277653 -0.07712395 0.015075896
000330 36 79 b0 3d 48 58 7c bd d8 95 1c bc cb 29 42 3d
       0.08616869 -0.06160763 -0.00955721 0.047403138
000340 22 f1 08 3c a0 fa 04 bb 5e b4 a4 bd 22 f3 2f 3d
       0.008358272 -0.0020290986 -0.08042215 0.04295648
000350 b4 c4 17 3d 34 bd 49 3d 8c c7 0b bd 46 0d db bc
       0.037052825 0.049252704 -0.03412585 -0.026739728
000360 b2 b9 19 bc 9a 3f 4a 3c 77 b2 cc bc da 3b 87 bd
       -0.009382652 0.012344265 -0.024987442 -0.06603213
000370 a8 d2 8f bd 90 16 4b 3d 43 95 24 bc 44 bb d2 bc
       -0.07022601 0.049582064 -0.010045352 -0.02572406
000380 0f d2 24 bd 0b cb 2a bd 56 76 17 3c e3 a7 87 bd
       -0.04023939 -0.041697543 0.009244522 -0.06623819
000390 fe f0 b8 3c d6 af b6 3d c8 a8 12 3c 8b 61 7c 3d
       0.022575852 0.08920257 0.008951373 0.06161646
0003a0 39 4c 12 3d 49 7b 34 bd 36 54 88 3d 18 e1 b3 3c
       0.035717223 -0.044062886 0.06656687 0.021957919
0003b0 bc 3e 92 bd 73 4c 89 bd 10 ed a9 3b 9f b5 24 3d
       -0.07140872 -0.06704035 0.0051857308 0.04021227
0003c0 54 f7 b9 3d f0 e6 94 bb 00 4c eb 3b d5 b3 7d bd
       0.09080377 -0.0045441315 0.0071806908 -0.06193908
0003d0 ba 86 9e bd 82 41 96 3d 20 75 28 3b 84 db a5 3c
       -0.07740541 0.073367134 0.0025704578 0.020246275
0003e0 c8 04 1f bd 60 69 17 bb 40 80 35 3b de c8 4d bd
       -0.03882292 -0.002310358 0.002769485 -0.05024039
0003f0 c8 6c 1b bd f0 71 37 3d 34 eb 02 3d 92 ac b3 3d
       -0.03794554 0.044786394 0.03196259 0.087731495

fc2.bias f4 [84]
000000 60 8d 81 3c 18 9a 6d 3d 3b da 37 bd 7d a0 12 bd
       0.015814483 0.058008283 -0.044885855 -0.035797585
000010 d2 db 90 3d 3c 97 f9 bc 13 7a 79 3d c9 8f 5d 3d
       0.070731774 -0.030467622 0.060907435 0.054092202
000020 f3 bb 44 3b 8c e4 2c bd d1 80 8e bd f9 45 ad 3d
       0.0030019253 -0.042210147 -0.069581635 0.08460612
000030 1c f1 88 3d a4 30 16 bd 74 91 96 3d d6 d2 06 3d
       0.06686613 -0.03666748 0.07351962 0.032915913
000040 28 06 9a 3c 17 67 89 3d aa 10 f3 3b 4c d2 ff bc
       0.018801764 0.06709116 0.007417758 -0.031228207
000050 3f 96 09 bd 85 56 95 3d 64 30 02 3d 19 3a db bc
       -0.03359055 0.07291893 0.03178443 -0.026761102
000060 ee cd f0 b9 b0 04 ba bc b4 99 61 bd 1f 55 a7 3c
       -0.00045929797 -0.022707313 -0.055078223 0.020426331
000070 7a 5a 95 bd eb 2b a6 3c e4 92 9a bd 66 bf 90 3d
       -0.07292648 0.020284614 -0.075475484 0.07067756
000080 c9 25 46 bc 5b 74 d0 3c fc 2e 97 bb 78 c6 4c bc
       -0.01209397 0.025446108 -0.0046137553 -0.0124984905
000090 78 ef 84 bc 59 43 a2 bd 81 ff 46 bd 09 11 95 bb
       -0.016227469 -0.07923002 -0.04858351 -0.00454915
0000a0 be 0e 82 bd bf 98 aa 3d c8 6f 58 3d 1d 60 be 3b
       -0.06350468 0.08329915 0.052840978 0.0058097974
0000b0 3c 33 8a bc e1 97 1d bd 86 30 d4 3c 97 66 38 3d
       -0.016870134 -0.03847492 0.025902044 0.045019712
0000c0 63 87 b4 3d 41 3c c3 3c 3f f4 03 3d 26 ca 55 bd
       0.088148855 0.023832442 0.032215353 -0.052194737
0000d0 7c 81 b7 bc 16 ff 05 bd 27 26 5f bb 92 ab a4 bd
       -0.02240061 -0.032713972 -0.003404984 -0.08040537
0000e0 29 35 28 bd b9 31 78 3d 30 d7 9f bc b0 3c 80 bd
       -0.041066322 0.060594294 -0.01951179 -0.06261575
0000f0 7f 09 14 3d c9 d3 ab 3d c1 da 2a 3d 88 0e 9e bc
       0.03614187 0.08390004 0.041712526 -0.019294038
000100 bb 57 b0 bd dc 64 4f bd d4 06 0a 3d 95 18 57 bc
       -0.08610483 -0.050633296 0.033697918 -0.013128419
000110 bf 09 12 3d d0 0d 4a bc 95 fc 72 3d 6c a2 42 bd
       0.035653826 -0.012332395 0.059322912 -0.04751818
000120 8d f1 b7 bd 8d e8 ba 3d 2e c0 8a 3d 61 65 60 3d
       -0.08981619 0.09126387 0.067749366 0.054784182
000130 cb e4 9e bd 2b 22 56 3d 85 4f 89 bd dc 2a aa 3d
       -0.077584825 0.05227868 -0.0670462 0.08308956
000140 9c 3a 7f bc a2 b4 77 bd 04 92 88 3c 01 14 45 3d
       -0.015577938 -0.060475 0.016671188 0.04811478

fc3.weight f4 [8, 84]
000000 35 8f d5 bd 58 13 01 bc 66 ff 8b bd db b3 a2 bd
       -0.10427705 -0.007878147 -0.06835823 -0.07944461
000010 4c ea 51 bd 04 62 6d bd be 84 aa bd f3 6b e3 3c
       -0.051248834 -0.057954803 -0.083261 0.027761435
000020 f9 63 e9 3c 08 1b 6c 3c c0 02 06 3c 48 7a 7d bd
       0.028490053 0.014410742 0.008179367 -0.061884195
000030 ca c8 8b 3d 81 f7 97 3d b3 5d 8d bc 6f 10 86 3d
       0.06825407 0.074202545 -0.017256593 0.06546103
000040 60 06 96 bc eb 6d ce bc ec 1a b7 3d 22 56 0c 3d
       -0.018313587 -0.025198897 0.08940682 0.03426183
000050 1c 85 dc 3c 22 b8 b3 bd 34 f4 87 bc 93 bf a0 3d
       0.02691894 -0.08775355 -0.016595937 0.0784904
000060 c8 b6 4f bd d6 cd 65 3d aa 33 82 3d 65 ee 24 bd
       -0.050711423 0.056104504 0.063575104 -0.040266413
000070 0a cc d6 bd ca 12 89 bd 65 ad 76 bd d9 fd 08 3d
       -0.10488136 -0.06693037 -0.060223956 0.033445213
000080 9a b1 db 3d 1b a0 df 3d ee ae 17 3d 2c ca ec 3c
       0.10727234 0.109192096 0.03703206 0.028904997
000090 90 b2 60 bc 44 09 9d bd 45 8a 9e 3d da ed 37 bd
       -0.013714448 -0.07667783 0.077412166 -0.044904567
0000a0 9b 6d c6 3d c5 8f 3e bd 13 03 30 3c c9 00 89 bc
       0.09688874 -0.046523828 0.01074292 -0.016724007
0000b0 f8 cd b1 bd 24 80 c0 bc a6 e1 46 3b d9 9b b8 bd
       -0.086818635 -0.023498602 0.00303469 -0.090141006
0000c0 d9 5c 8d bd 8d 5a 2a bb ca 49 5d 3c b8 91 16 bd
       -0.06902475 -0.0025993914 0.013506362 -0.036760062
0000d0 6e 04 c0 bd c0 ca 8e bb 06 e3 81 bd 29 c1 94 3d
       -0.09375845 -0.004357666 -0.063421294 0.07263405
0000e0 ba 6d a7 bd 73 31 03 3d d1 f9 d0 bd dd 62 c5 bd
       -0.081752256 0.03202958 -0.10203899 -0.09637997
0000f0 63 06 b2 3d 39 df d0 3c a4 12 aa bd 56 d4 34 3d
       0.086926244 0.025497066 -0.08304337 0.04414781
000100 79 2b d1 3d 8c 71 2c bd ea 73 71 3d 8b 08 d7 ba
       0.1021337 -0.042100474 0.058948435 -0.0016405744
000110 51 9b 41 bd 7d 0d c7 bd 13 09 bd bd a8 ab 61 bc
       -0.047267262 -0.097193696 -0.092302464 -0.013773836
000120 70 9e 67 3c 15 38 d9 3d 50 f8 9f 3c c9 d3 ad bc
       0.014136896 0.106064 0.019527584 -0.021219151
000130 58 0e b8 bc 4f 7c 2d 3d 50 ed 23 3c c2 ef c2 bb
       -0.022467777 0.042354878 0.01000531 -0.0059489915
000140 55 43 48 bd 41 af 98 3d a8 bd 4a bc 45 44 68 bd
       -0.048892338 0.07455302 -0.012374319 -0.056705732
000150 cf 0e 74 bd cb d7 20 3c b4 03 d6 3c 28 ad b6 bd
       -0.059584435 0.009817074 0.026124813 -0.08919746
000160 4a 7f b4 bc 8e 31 5c bd da 1d dc 3d 84 3e 6d 3d
       -0.022033352 -0.053758197 0.10747881 0.057920948
000170 92 28 41 3d f8 e6 ee bc ec 1e 91 3c ad 9b 46 3d
       0.04715783 -0.029162869 0.01771494 0.048488308
000180 22 12 4a bd e0 42 ba bc b2 65 e3 bc 00 47 ed bc
       -0.0493337 -0.022736967 -0.027758453 -0.02896452
000190 01 78 b7 bd 3e 97 8d bd 15 87 b8 bd be c6 6d 3d
       -0.08958436 -0.06913613 -0.0901014 0.058050863
0001a0 9e 29 42 3d 3b 61 93 38 c6 1d 64 bd 97 b9 8b bd
       0.04740297 7.027617e-05 -0.055692457 -0.06822508
0001b0 9c 17 ae bd 08 b4 21 3c fa e8 b2 3d cc f1 99 3b
       -0.08500597 0.009869583 0.08735843 0.004698014
0001c0 0b e2 d7 bd 8f 1a 98 bd 4d 5d c1 3d 71 c4 88 bd
       -0.10541161 -0.07426941 0.09441624 -0.06678093
0001d0 c8 d4 b8 bd 61 28 db bd 51 10 a5 bd 6a 3c d1 bd
       -0.0902496 -0.10701061 -0.08059753 -0.10216601
0001e0 97 b8 8a bd c1 e9 b1 3c 54 21 0e bd a5 93 cb bd
       -0.06773489 0.021717908 -0.034699753 -0.0994027
0001f0 f4 4e 98 bd 90 bd 63 3d 06 bd e2 3c 08 45 10 bd
       -0.07436934 0.055600703 0.027678024 -0.035222083
000200 95 15 2e 3c 63 56 0b bd a1 fe b9 bc c2 79 c6 bc
       0.010625263 -0.03401793 -0.022704424 -0.02422798
000210 f1 9c c4 3d 55 2b 53 3b f7 07 77 bd af 26 bd 3d
       0.09600247 0.0032221873 -0.06031033 0.09235894
000220 fc 0d 47 bd 78 82 0e bd 78 29 23 3d d4 a7 d9 3c
       -0.04859732 -0.034792393 0.03983447 0.026569284
000230 00 60 67 b8 3d 34 03 3d a0 71 d4 bc f8 b4 c9 bd
       -5.51641e-05 0.03203224 -0.025933087 -0.0984897
000240 44 c9 b8 3d 9a fa 6b bd 02 25 3c bd d2 90 28 bd
       0.09022763 -0.05761204 -0.04593373 -0.041153736
000250 66 c1 7e 3d 50 95 03 bc b6 f5 21 bd 24 a3 74 3d
       0.062196158 -0.008031204 -0.03954097 0.059725896
000260 33 29 df 3c 6a 88 9a 3d 98 94 5d 3d d3 06 ca 3d
       0.027241325 0.0754555 0.05409679 0.09864583
000270 30 30 3f bd b1 3e 6d 3c 08 5f 73 bd c0 87 8b bd
       -0.046676815 0.014480279 -0.0594168 -0.06813002
000280 c0 25 af bc 7f cc ee 3c c0 4f f7 3b a6 23 3d 3c
       -0.021380305 0.029150246 0.0075473487 0.011544144
000290 f3 c5 a0 3d d1 f2 c1 bd 84 d2 8b 3c 2e 46 21 3d
       0.07850256 -0.09470142 0.017068155 0.03937357
0002a0 8d 0a 93 3d b3 67 c3 3d 41 b7 d5 3d 00 7e 19 3b
       0.07179747 0.095412634 0.104353435 0.002342105
0002b0 d3 27 82 3a b1 ec a5 bd 2e db d3 3d 5d 17 d4 bd
       0.0009930081 -0.08101786 0.103445396 -0.10356019
0002c0 ef c1 86 3d 1c 76 32 bd 8a 8a 08 3d 09 7b c8 bd
       0.06579959 -0.04356967 0.033335246 -0.09789092
0002d0 4e a2 59 bc 00 ef 79 ba 4e 0d b0 bd d0 d0 17 bc
       -0.013283325 -0.000953421 -0.08596288 -0.009266093
0002e0 68 78 bf bc ef 7d 9e bc 19 62 40 3d b3 a9 bc 3d
       -0.023372844 -0.01934716 0.046968553 0.09212055
0002f0 7b 3f a4 3d 29 20 94 3d 26 53 88 3d 15 f5 0e bd
       0.080199204 0.072326966 0.06656484 -0.034901697
000300 c8 8c 4b 3d 58 2f cf bd 8c 8e ae 3d 4d 6c 63 bd
       0.049694806 -0.10116452 0.085232824 -0.055523206
000310 1d c8 c1 bd b6 67 ba 3c 71 03 98 3d fc e4 80 bd
       -0.09461997 0.022754531 0.074225314 -0.06293675
000320 95 d3 15 bd d0 81 80 3d 35 14 88 3d 02 de 95 bd
       -0.036578733 0.0627476 0.06644479 -0.07317735
000330 b5 6e 94 3d d9 a6 d4 bc 1c 88 9c 3c f2 c4 ff bc
       0.07247678 -0.025958465 0.01910787 -0.03122184
000340 8c 2c 9f 3c b7 19 63 3c a8 d5 2c bc c5 61 65 bd
       0.019430421 0.013861111 -0.0105489865 -0.056001443
000350 24 c3 71 bc 5e 09 a8 3a a0 93 1b bd 9e c9 d1 3d
       -0.014755998 0.0012820174 -0.037982583 0.102435336
000360 c2 c4 d4 bd 1b 62 28 bd 9a d4 b3 3d 93 16 ad 3d
       -0.10389091 -0.041109186 0.08780785 0.08451571
000370 a1 7b 4a bd 90 39 a7 bb c5 54 ab 3d 48 c7 4d 3c
       -0.049434308 -0.0051032975 0.08365778 0.012559719
000380 86 00 54 bd ae a1 e6 3d 84 18 80 bd 36 56 9d bd
       -0.05175831 0.11261307 -0.06254676 -0.07682459
000390 4d 3a 09 3d 69 9e 03 bd 17 8b fa bc 6a 07 0e bd
       0.033502866 -0.032133494 -0.030583901 -0.03467504
0003a0 35 22 ce bd d0 e1 33 bd 40 e7 76 bb 23 6a 41 bd
       -0.10065118 -0.043916523 -0.0037674457 -0.04722036
0003b0 c2 27 bb 3d 91 b3 d1 3d e8 8b f9 bc b2 3b 8e bd
       0.091384426 0.10239328 -0.03046222 -0.0694498
0003c0 82 d3 9c bd 51 25 50 3d de b6 7c bc f1 0a a1 bc
       -0.076575294 0.050816838 -0.015424458 -0.019658538
0003d0 33 3a d5 3d c1 57 08 3c 80 a0 0d 3a c7 35 b7 bc
       0.10411491 0.008321703 0.00054026395 -0.02236451
0003e0 83 90 62 bd f8 5c 13 3c e5 54 cc bd 12 7f 02 bd
       -0.0553136 0.008994333 -0.0997713 -0.031859465
0003f0 ea 4f 6a 3d d2 b5 12 3d 9b 3c c5 bd d8 22 71 bc
       0.05720512 0.03581793 -0.096307 -0.01471778

fc3.bias f4 [8]
000000 54 1b 79 39 0a df a8 3c 1b d2 7c bc 91 c4 21 3d
       0.00023756671 0.020614166 -0.015430952 0.0394941
000010 14 fb 39 3d af 5e 89 3d 30 de 52 3b 9f 11 d2 3c
       0.045405462 0.067075126 0.003217589 0.025643168
